submission/notebooks/models/ONNX/model_final.onnx (onnx, 409349 bytes, 29 tensors)

BatchNormalization_0_param0 f4 [24]
1.4975308 1.2686207 1.0547173 1.2903486 1.8666155 1.2778947 1.1972522 2.604787
2.8368921 1.5502605 3.0933795 1.2367193 1.3079528 1.3522985 0.8085688 1.3829674
0.8255866 0.8977058 2.9389772 1.2535362 2.9532518 1.0426068 1.2189223 1.7723348
00000000: 17af bf3f 2a62 a23f fa00 873f 252a a53f
00000010: 42ed ee3f 0e92 a33f 8f3f 993f d5b4 2640
00000020: a48f 3540 f06e c63f eef9 4540 d14c 9e3f
00000030: ff6a a73f 1e18 ad3f 5dfe 4e3f 1305 b13f
00000040: a559 533f 0cd0 653f 3418 3c40 e073 a03f
00000050: 1402 3d40 2474 853f a505 9c3f dedb e23f

BatchNormalization_0_param1 f4 [24]
-1.5492642 -0.23387645 -0.49354735 -0.168244 -0.23918916 -0.28836972 -0.66938907 -1.6187942
-1.7696581 0.2760721 -1.7590146 -0.26868322 -0.7908103 -1.492486 -0.27613375 -1.3940881
-0.7943699 -0.49957836 -1.7349437 -0.26966357 -1.6971493 -0.95757204 -1.415149 0.28560588
00000000: 4a4e c6bf 4f7d 6fbe 3db2 fcbe 2848 2cbe
00000010: 01ee 74be 32a5 93be 155d 2bbf a634 cfbf
00000020: 2884 e2bf 5359 8d3e 6427 e1bf d990 89be
00000030: 8b72 4abf c809 bfbf 6761 8dbe 7b71 b2bf
00000040: d35b 4bbf bcc8 ffbe a312 debf 5811 8abe
00000050: 303c d9bf 7123 75bf 9a23 b5bf ef3a 923e

BatchNormalization_0_param2 f4 [24]
-32.328712 -91.18831 -49.041092 -33.69106 -181.31688 -51.724804 -70.32957 -58.777622
-61.943386 -37.33276 -61.1001 -45.522995 -77.28276 -43.08006 -25.554464 -36.52625
-27.540861 -57.100956 -65.99395 102.10142 -59.195507 -27.094606 -10.086391 153.23601
00000000: 9a50 01c2 6a60 b6c2 142a 44c2 a5c3 06c2
00000010: 1f51 35c3 33e6 4ec2 bda8 8cc2 491c 6bc2
00000020: 07c6 77c2 bf54 15c2 8166 74c2 8c17 36c2
00000030: c690 9ac2 fb51 2cc2 8b6f ccc1 e11a 12c2
00000040: af53 dcc1 6167 64c2 e7fc 83c2 ed33 cc42
00000050: 33c8 6cc2 c1c1 d8c1 dc61 21c1 6b3c 1943

BatchNormalization_0_param3 f4 [24]
2694.1833 2567.3186 6909.997 10184.491 3457.6318 9390.344 12586.8545 9979.367
10030.088 4767.0996 12130.837 10138.083 11359.372 2410.1013 6504.482 2891.4033
1809.1327 9736.422 13044.64 2768.368 11352.723 1902.317 1537.0802 2468.4473
00000000: ef62 2845 1975 2045 faef d745 f721 1f46
00000010: 1c1a 5845 60b9 1246 6bab 4446 78ed 1b46
00000020: 5ab8 1c46 ccf8 9445 598b 3d46 5568 1e46
00000030: 7d7d 3146 9fa1 1645 db43 cb45 74b6 3445
00000040: 3f24 e244 b021 1846 8fd2 4b46 e305 2d45
00000050: e462 3146 25ca ed44 9122 c044 2847 1a45

BatchNormalization_1_param0 f4 [32]
1.4248052 1.4568899 1.6723957 0.93495154 0.9552001 0.9252346 1.5131643 2.1308293
0.9122687 1.5993363 0.96485555 1.02535 0.9323097 1.5021386 1.0897932 1.6530282
2.6158152 1.1810411 1.8855016 0.83459455 1.6213195 1.4067048 0.8381903 1.1262448
2.8437643 1.3955727 1.1855735 1.4869187 1.4699839 1.2310089 1.0983427 1.1730846
00000000: 0460 b63f 5e7b ba3f 1011 d63f fc58 6f3f
00000010: fe87 743f 2ddc 6c3f 5eaf c13f 825f 0840
00000020: 718a 693f 0db7 cc3f c600 773f ab3e 833f
00000030: d9ab 6e3f 1446 c03f 587e 8b3f 6e96 d33f
00000040: 8469 2740 5b2c 973f 1e58 f13f fda7 553f
00000050: 6687 cf3f e70e b43f a493 563f ca28 903f
00000060: 3c00 3640 20a2 b23f dfc0 973f 5a53 be3f
00000070: 6f28 bc3f b391 9d3f 7e96 8c3f a327 963f

BatchNormalization_1_param1 f4 [32]
-1.2882559 -1.8182778 -0.71100456 -0.4572356 -0.6903303 0.8141744 -0.39501587 -1.295547
-0.61491567 -2.5059133 -0.62652475 -1.1131735 -0.88342136 -1.2239352 -1.0105025 -0.86454195
-3.4915133 -0.24366075 -1.163836 -0.5344757 -2.005696 -1.0155511 0.022359125 -0.4524808
-3.2540348 -0.55244404 -0.2308761 -1.4323252 -0.8944074 -1.4728476 -0.20253673 -1.4003781
00000000: 92e5 a4bf 54bd e8bf 6504 36bf c91a eabe
00000010: 7db9 30bf bc6d 503f 853f cabe 7cd4 a5bf
00000020: 1d6b 1dbf e260 20c0 ed63 20bf 787c 8ebf
00000030: e727 62bf e9a9 9cbf 2558 81bf 9f52 5dbf
00000040: f474 5fc0 3482 79be 94f8 94bf 66d3 08bf
00000050: 535d 00c0 94fd 81bf 7c2a b73c 90ab e7be
00000060: 1b42 50c0 f96c 0dbf c96a 6cbe 6f56 b7bf
00000070: e2f7 64bf 4586 bcbf ca65 4fbe 973f b3bf

BatchNormalization_1_param2 f4 [32]
-17.686909 -7.432573 -3.0570235 -6.789514 -7.354082 21.044403 -4.15529 3.4759681
-9.413636 4.448358 -5.7943277 -10.797535 -9.891571 -17.727629 -5.3565497 11.326562
-4.524596 6.1861095 -19.851093 -7.1333094 -9.65376 1.1384859 11.853419 -0.010540107
2.9414372 1.1138017 -7.3320875 -11.450242 -15.831355 -0.37409523 -9.328907 10.082033
00000000: ca7e 8dc1 a3d7 edc0 46a6 43c0 b343 d9c0
00000010: a454 ebc0 f05a a841 23f8 84c0 4376 5e40
00000020: 419e 16c1 f358 8e40 226b b9c0 b4c2 2cc1
00000030: e043 1ec1 2fd2 8dc1 db68 abc0 9939 3541
00000040: 7ec9 90c0 9cf4 c540 0acf 9ec1 1244 e4c0
00000050: cd75 1ac1 e8b9 913f 9ba7 3d41 6ab0 2cbc
00000060: 8240 3c40 0e91 8e3f 76a0 eac0 3134 37c1
00000070: 3b4d 7dc1 6989 bfbe 3443 15c1 0250 2141

BatchNormalization_1_param3 f4 [32]
64.47423 107.89277 604.72266 147.14546 78.9365 755.2547 664.7889 149.1517
145.61998 58.58857 155.50171 57.590065 112.77052 176.67004 86.811386 326.1616
109.24465 413.04785 141.03423 64.87079 111.81367 101.430534 175.65375 271.8875
134.8114 425.23758 237.94298 77.11112 92.78362 109.16196 239.16745 109.525215
00000000: cef2 8042 19c9 d742 402e 1744 3d25 1343
00000010: 7ddf 9d42 4dd0 3c44 7d32 2644 d626 1543
00000020: b79e 1143 b25a 6a42 7080 1b43 3a5c 6642
00000030: 828a e142 88ab 3043 6e9f ad42 af14 a343
00000040: 437d da42 2086 ce43 c308 0d43 d8bd 8142
00000050: 99a0 df42 6fdc ca42 5ca7 2f43 9af1 8743
00000060: b8cf 0643 699e d443 67f1 6d43 e538 9a42
00000070: 3791 b942 ec52 da42 de2a 6f43 e90c db42

BatchNormalization_2_param1 f4 [48]
-4.10119 -1.9373319 -0.33044177 -2.1961071 1.1760026 -0.67511064 -1.905418 -0.41362655
-0.43139863 -1.5255811 0.22588013 -0.30479297 -0.8398254 -0.30410117 -0.8278221 -0.81384176
0.014255038 -0.9534823 -0.32488337 -0.79392564 -1.5929193 -1.1702211 -0.28276694 -1.5421511
-3.0894616 -1.1631889 -1.6268423 -0.5824138 -2.2455406 -0.5871684 -0.7845154 -0.69273984
-0.1615941 -0.84048104 -2.9904342 -1.2445863 -1.6599222 -0.74544275 -0.30351543 0.7742091
-0.5542623 -0.4418439 -0.9914791 -0.77440053 -1.557416 -1.469887 -2.1670566 -1.1111939
00000000: f33c 83c0 7efa f7bf aa2f a9be 058d 0cc0
00000010: 4187 963f 0dd4 2cbf bde4 f3bf dcc6 d3be
00000020: 48e0 dcbe 3e46 c3bf 1f4d 673e d30d 9cbe
00000030: ccfe 56bf 26b3 9bbe 26ec 53bf ef57 50bf
00000040: f78d 693c 6a17 74bf 1d57 a6be b63e 4bbf
00000050: c8e4 cbbf cec9 95bf d4c6 90be 3565 c5bf
00000060: bdb9 45c0 60e3 94bf 5e3c d0bf 1219 15bf
00000070: f0b6 0fc0 ab50 16bf 00d6 48bf 6657 31bf
00000080: ec78 25be c429 57bf 4663 3fc0 9b4e 9fbf
00000090: 5578 d4bf 56d5 3ebf 6066 9bbe 9132 463f
000000a0: 22e4 0dbf 5d39 e2be 93d1 7dbf 1d3f 46bf
000000b0: 6859 c7bf 4225 bcbf 0eb1 0ac0 9a3b 8ebf

BatchNormalization_2_param2 f4 [48]
3.3821192 -5.483614 -43.483112 -14.285816 7.2343907 -16.550438 -22.369453 7.8358173
10.135956 -12.145212 1.6790181 -0.5250507 -5.9409113 -1.9522903 -19.315456 4.806027
-12.726937 -2.1373065 -24.412912 4.140462 -7.7139416 0.43839023 -25.97093 -11.962819
-7.0430684 -2.1961837 -14.132045 -5.4741316 -9.687342 -4.1904297 1.1924794 -8.818405
-18.343012 4.267082 -3.5136476 -2.262804 -5.8299537 14.621312 -5.5326195 -25.509819
-22.639074 -11.749191 -46.648647 -4.439394 7.3735023 -8.648542 -5.6750164 -0.8289337
00000000: a474 5840 c479 afc0 b5ee 2dc2 b492 64c1
00000010: 2180 e740 4c67 84c1 a4f4 b2c1 04bf fa40
00000020: e02c 2241 ca52 42c1 11ea d63f b969 06bf
00000030: f21b bec0 a6e4 f9bf 0e86 9ac1 f9ca 9940
00000040: 89a1 4bc1 a1c9 08c0 a54d c3c1 aa7e 8440
00000050: 9cd8 f6c0 af74 e03e 77c4 cfc1 b567 3fc1
00000060: d160 e1c0 468e 0cc0 db1c 62c1 162c afc0
00000070: 5aff 1ac1 0018 86c0 2aa3 983f 3018 0dc1
00000080: 7dbe 92c1 f08b 8840 9adf 60c0 c8d1 10c0
00000090: fb8e bac0 e5f0 6941 380b b1c0 1c14 ccc1
000000a0: d31c b5c1 b0fc 3bc1 3798 3ac2 840f 8ec0
000000b0: bbf3 eb40 6e60 0ac1 bc99 b5c0 0035 54bf

BatchNormalization_2_param3 f4 [48]
129.81323 107.27214 1669.1327 108.267006 249.84145 184.37123 511.60663 109.952705
258.17825 115.03646 337.68192 547.7651 101.79084 630.7391 133.63745 886.5279
254.70825 103.12122 150.01926 214.08434 65.88101 106.9218 292.69394 527.05383
46.883244 151.85094 156.03096 419.92398 87.891624 140.1572 274.0871 248.33603
733.6001 314.38843 237.29237 128.8977 163.15778 398.05618 103.33296 845.92316
810.7111 389.6324 1133.5916 115.67416 450.85632 101.91929 93.12404 131.58432
00000000: 30d0 0143 568b d642 3fa4 d044 b588 d842
00000010: 69d7 7943 095f 3843 a6cd ff43 c9e7 db42
00000020: d116 8143 ab12 e642 49d7 a843 f7f0 0844
00000030: e994 cb42 4daf 1d44 30a3 0543 c9a1 5d44
00000040: 50b5 7e43 113e ce42 ee04 1643 9715 5643
00000050: 14c3 8342 f6d7 d542 d358 9243 72c3 0344
00000060: 7188 3b42 d7d9 1743 ed07 1c43 45f6 d143
00000070: 83c8 af42 3e28 0c43 260b 8943 0656 7843
00000080: 6866 3744 b831 9d43 d94a 6d43 d0e5 0043
00000090: 6428 2343 3107 c743 7aaa ce42 157b 5344
000000a0: 83ad 4a44 f2d0 c243 eeb2 8d44 2b59 e742
000000b0: 9c6d e143 add6 cb42 823f ba42 9695 0343

BatchNormalization_3_param0 f4 [64]
1.0601459 1.3714232 1.245478 1.3988394 1.5256442 1.5374782 1.5810058 0.9361975
1.2929642 1.0831674 0.98653096 1.567362 1.1792861 1.3273546 1.3093128 1.3357205
1.7090864 1.2736291 1.7893661 1.3860683 1.332945 1.5341203 1.0950699 0.99248534
1.6623015 1.8660336 1.0984147 1.1093379 1.389792 1.5612175 1.0876951 1.2261299
1.6129014 1.5740831 1.6085228 0.98827744 1.2211244 2.357826 1.3451968 1.4324809
1.1508553 1.3597646 1.7855991 1.6028619 1.1824758 1.5347414 1.2969342 1.2871333
1.1541263 1.085843 1.3404313 1.3320553 1.3945255 1.6712053 1.5090479 1.761473
1.2778339 1.1508017 1.7465858 1.3149053 1.8132204 1.4595562 1.6402644 1.4708159
00000000: dcb2 873f cc8a af3f d36b 9f3f 2b0d b33f
00000010: 4f48 c33f 16cc c43f 665e ca3f a4aa 6f3f
00000020: da7f a53f 3ba5 8a3f 4b8d 7c3f 519f c83f
00000030: d9f2 963f c1e6 a93f 9097 a73f e4f8 aa3f
00000040: 58c3 da3f 4706 a33f f309 e53f b06a b13f
00000050: f19d aa3f 0e5e c43f 402b 8c3f 8513 7e3f
00000060: 4cc6 d43f 30da ee3f da98 8c3f c9fe 8d3f
00000070: b4e4 b13f fad5 c73f 9839 8b3f d3f1 9c3f
00000080: 8e73 ce3f 8e7b c93f 13e4 cd3f c0ff 7c3f
00000090: ce4d 9c3f 9fe6 1640 692f ac3f 895b b73f
000000a0: 3a4f 933f c40c ae3f 838e e43f 942a cd3f
000000b0: 5e5b 973f 6872 c43f f101 a63f c9c0 a43f
000000c0: 69ba 933f e7fc 8a3f 4193 ab3f ca80 aa3f
000000d0: d07f b23f 0eea d53f 7b28 c13f f277 e13f
000000e0: 1090 a33f 784d 933f 2090 df3f d14e a83f
000000f0: 9b17 e83f bdd2 ba3f 2ff4 d13f b243 bc3f

BatchNormalization_3_param1 f4 [64]
-0.8446931 -0.420411 -1.2265867 -3.8620002 -1.2743405 -1.6581327 -1.0394508 -0.06205344
-0.85333276 -0.93772113 -0.74424034 -2.052297 -1.0034953 -1.4837787 -0.6230538 -1.5839093
-1.7863872 -0.6716289 -0.24549909 0.079657115 -0.7721798 -1.7881426 -0.7181745 -0.66901124
-1.4242445 -1.0955312 -1.5576873 -0.6950661 -1.2001171 -0.90057 -0.9536227 -0.18774866
-1.1350796 -2.5339398 -1.6085485 -0.6905623 -1.5198052 -3.512951 -0.9578715 -1.8710995
-0.618558 -0.16439362 -2.0875196 -1.4202349 0.021928249 -0.45409203 -1.0445212 -0.95138985
-0.9325178 -0.0026616259 -1.0746869 -2.4477956 -1.2888231 -1.484859 -1.9777396 -1.7846836
-1.4819498 -1.2243395 -0.83247834 -1.7747191 -2.164008 -3.0183737 -1.1248124 -2.35369
00000000: cf3d 58bf 1c40 d7be cb00 9dbf 032b 77c0
00000010: 971d a3bf b13d d4bf b90c 85bf bf2b 7ebd
00000020: 0474 5abf 7e0e 70bf 8986 3ebf d658 03c0
00000030: 8972 80bf 76ec bdbf 7480 1fbf 8abd cabf
00000040: 56a8 e4bf dfef 2bbf 1d64 7bbe 4523 a33d
00000050: 93ad 45bf dbe1 e4bf 49da 37bf 5244 2bbf
00000060: a54d b6bf 5e3a 8cbf 4c62 c7bf daef 31bf
00000070: 709d 99bf c18b 66bf 9e20 74bf 2f41 40be
00000080: 4a4a 91bf 122c 22c0 ebe4 cdbf b1c8 30bf
00000090: fa88 c2bf 30d4 60c0 1137 75bf 3080 efbf
000000a0: d159 1ebf cd56 28be ec99 05c0 42ca b5bf
000000b0: dfa2 b33c c07e e8be dfb2 85bf 498e 73bf
000000c0: 7db9 6ebf ac6e 2ebb 578f 89bf afa8 1cc0
000000d0: 28f8 a4bf dc0f bebf 9226 fdbf 8370 e4bf
000000e0: 88b0 bdbf 28b7 9cbf 4d1d 55bf ff29 e3bf
000000f0: 1b7f 0ac0 092d 41c0 daf9 8fbf dba2 16c0

BatchNormalization_3_param2 f4 [64]
14.284463 -0.9924047 -8.996248 -4.2845774 -2.5726564 9.996485 -34.30136 -10.347957
-5.364914 1.2856221 -19.20031 -10.640755 -25.898315 -20.064363 -5.657378 -35.783073
-32.21409 -0.9521154 -12.416978 -22.18612 -20.411095 -10.21352 -13.689339 -15.050126
-12.782548 -19.577518 -8.1679735 17.077105 -7.4498725 -42.78681 -35.972927 -2.7224329
4.9395657 0.20361559 1.7542218 3.732816 0.7588158 -8.119702 -25.07836 -7.3709903
-25.49045 13.463206 1.9380316 -26.314684 -26.314592 -22.458574 -11.223447 -29.50108
-26.166288 -8.971185 -10.680056 25.16511 -7.017441 1.0429952 -19.231915 -23.21592
-16.776354 24.054893 -31.63605 8.170957 -2.6715362 -1.4255971 4.8024693 -14.122129
00000000: 298d 6441 3c0e 7ebf a2f0 0fc1 421b 89c0
00000010: 67a6 24c0 9af1 1f41 9834 09c2 3b91 25c1
00000020: 60ad abc0 448f a43f 3c9a 99c1 8840 2ac1
00000030: c02f cfc1 d183 a0c1 3e09 b5c0 de21 0fc2
00000040: 3adb 00c2 d6bd 73bf f1ab 46c1 2c7d b1c1
00000050: ec49 a3c1 946a 23c1 8807 5bc1 51cd 70c1
00000060: 5185 4cc1 c29e 9cc1 05b0 02c1 e99d 8841
00000070: 5b65 eec0 b225 2bc2 47e4 0fc2 573c 2ec0
00000080: ec10 9e40 9b80 503e 578a e03f 75e6 6e40
00000090: c141 423f 4dea 01c1 7ba0 c8c1 27df ebc0
000000a0: 71ec cbc1 4b69 5741 6b11 f83f 7984 d2c1
000000b0: 4984 d2c1 29ab b3c1 3d93 33c1 3602 ecc1
000000c0: 8f54 d1c1 f989 0fc1 82e1 2ac1 2552 c941
000000d0: e08e e0c0 de80 853f f6da 99c1 34ba b9c1
000000e0: f935 86c1 6c70 c041 a116 fdc1 3dbc 0241
000000f0: 73fa 2ac0 f779 b6bf d4ad 9940 3ef4 61c1

BatchNormalization_3_param3 f4 [64]
244.23044 330.62347 651.4641 114.46868 265.333 400.31277 492.03946 315.99515
406.28226 341.54376 231.83244 150.66113 330.24203 247.25291 138.9715 460.765
533.2049 276.48117 860.97156 297.5627 303.12515 211.48824 259.05573 298.1037
275.86832 339.79004 190.92072 582.3957 312.9422 824.68756 327.55954 214.94083
1134.6566 154.98526 234.09985 301.84082 357.69315 93.29989 524.9908 153.63779
510.6536 794.377 158.25931 429.4893 693.77606 359.9344 313.27344 858.44354
332.42792 202.09889 398.7227 493.12238 358.77295 277.2809 290.66864 345.59003
415.121 353.82208 695.7736 402.33145 105.614914 221.72855 324.20914 310.16135
00000000: fe3a 7443 ce4f a543 b4dd 2244 f7ef e442
00000010: a0aa 8443 0928 c843 0d05 f643 61ff 9d43
00000020: 2124 cb43 9ac5 aa43 1bd5 6743 40a9 1643
00000030: fb1e a543 bf40 7743 b4f8 0a43 ec61 e643
00000040: 1d4d 0544 973d 8a43 2e3e 5744 07c8 9443
00000050: 0590 9743 fd7c 5343 2287 8143 460d 9543
00000060: 25ef 8943 20e5 a943 b4eb 3e43 5399 1144
00000070: 9a78 9c43 012c 4e44 9fc7 a343 daf0 5643
00000080: 03d5 8d44 3afc 1a43 9019 6a43 a0eb 9643
00000090: b9d8 b243 8b99 ba42 693f 0344 46a3 1943
000000a0: a953 ff43 2198 4644 6242 1e43 a1be d643
000000b0: ab71 2d44 9af7 b343 00a3 9c43 639c 5644
000000c0: c636 a643 5119 4a43 815c c743 aa8f f643
000000d0: f062 b343 f5a3 8a43 9655 9143 86cb ac43
000000e0: 7d8f cf43 3ae9 b043 83f1 2d44 6d2a c943
000000f0: d63a d342 82ba 5d43 c51a a243 a714 9b43

BatchNormalization_4_param0 f4 [96]
1.3904003 0.96190387 0.8206062 1.4178867 1.3728273 1.4815392 1.032184 0.98634917
0.9872226 1.6033587 1.2432976 1.3481466 1.0684065 0.47539783 0.8090526 1.7260514
1.2416098 1.1342573 1.4787035 1.4436128 0.86266273 1.328627 1.285385 0.84366286
1.1838214 1.001516 1.1631551 0.78789425 1.2059109 1.1006638 0.9755565 1.003436
1.4403508 1.1575427 1.0532304 1.3286191 1.0552788 0.81529087 1.21775 0.74475646
1.3745962 1.2316424 1.4904779 0.9423617 0.6684967 1.1437465 1.4125487 0.8471859
1.5938917 1.2738149 1.0590066 1.3906289 1.1801772 1.6898683 0.53083277 1.135641
1.056769 1.6681751 1.2821349 1.2566339 1.0912924 1.1054099 1.9840808 0.9096852
1.136589 1.9990442 1.2827406 1.1595633 1.2934957 1.4526606 1.2167017 1.344192
0.9590658 1.19598 0.9077569 1.2996405 1.455291 1.1905808 0.85750204 1.4032704
1.9333781 1.1402212 1.3574136 1.4502769 1.5687673 1.2937562 1.0915027 1.4406964
1.020763 1.1025856 1.398946 1.3298182 0.6632919 1.405519 1.3593377 1.0309598
00000000: a3f8 b13f 553f 763f 3f13 523f 507d b53f
00000010: ceb8 af3f 14a3 bd3f 9b1e 843f 6181 7c3f
00000020: 9fba 7c3f dc3a cd3f 6024 9f3f 1190 ac3f
00000030: 8bc1 883f 5867 f33e 121e 4f3f 41ef dc3f
00000040: 12ed 9e3f 582f 913f 2846 bd3f 4ec8 b83f
00000050: 77d7 5c3f 7310 aa3f 7f87 a43f 4afa 573f
00000060: 7687 973f ad31 803f 44e2 943f 70b3 493f
00000070: 4a5b 9a3f 8de2 8c3f 12be 793f 9770 803f
00000080: 6a5d b83f 5c2a 943f 41d0 863f 3110 aa3f
00000090: 6013 873f e7b6 503f 3bdf 9b3f 5ca8 3e3f
000000a0: c5f2 af3f 75a6 9d3f fbc7 be3f 9e3e 713f
000000b0: 9a22 2b3f 4966 923f 65ce b43f 2de1 583f
000000c0: a504 cc3f 5e0c a33f 878d 873f 2100 b23f
000000d0: 0c10 973f 9b4d d83f a8e4 073f af5c 913f
000000e0: 3544 873f c386 d53f ff1c a43f 61d9 a03f
000000f0: 78af 8b3f 127e 8d3f 5cf6 fd3f 21e1 683f
00000100: c07b 913f aee0 ff3f d830 a43f 926c 943f
00000110: 4491 a53f c8f0 b93f e2bc 9b3f 7c0e ac3f
00000120: 5685 753f df15 993f c262 683f 9f5a a63f
00000130: fa46 ba3f f464 983f 4185 5b3f 5d9e b33f
00000140: ef78 f73f c5f2 913f bbbf ad3f aca2 b93f
00000150: 5ecd c83f ce99 a53f 5cb6 8b3f bd68 b83f
00000160: 5da8 823f 8621 8d3f aa10 b33f 7c37 aa3f
00000170: 7fcd 293f 0ce8 b33f c7fe ad3f 7ef6 833f

BatchNormalization_4_param1 f4 [96]
-1.346417 -0.8805062 -0.74085057 -1.8468992 -2.221165 -1.5618707 -0.4448636 -0.6845895
-0.77615535 -0.8051761 -1.9863901 -0.70866907 -0.9205027 0.18617867 -1.0419502 -1.481436
-0.3130578 -1.7439367 -2.131397 -1.5149014 -0.6845136 -1.2241052 -1.0756056 -1.4072868
-1.614712 -0.9736821 -1.1164181 -0.63646954 -1.5430646 -0.8826339 -0.77965176 -0.7762135
-3.0405304 -1.7798997 -1.2338841 -1.3628657 -0.42846096 -0.19044766 -1.4285675 -0.18116023
-2.756813 -1.3466921 -1.6797848 -0.96868986 0.017980756 -1.4721279 -1.5368718 -1.6017268
-1.5966387 -0.98548293 0.014955594 -0.9784275 -0.80597067 -2.2148135 -0.9430999 -1.7675538
-1.0095623 -1.3627529 -1.2312202 -1.1442741 -1.2628653 -1.1241792 -1.4728951 -1.7932296
-1.0150206 -1.9673289 -2.6258974 -0.7949105 -0.63296026 -0.7244555 -0.9671411 -0.52628917
-0.8657899 -1.2605546 -0.8979911 -2.1911523 -1.5534678 -1.0420194 -0.49057287 -1.3794818
-1.8331509 -1.3075701 -0.79516155 -0.7632888 -1.1120863 -2.5255284 -0.6052875 -2.0873613
-1.3240695 -0.51002115 -1.1880202 -1.61732 -0.8352034 -1.424349 -1.239716 -1.0119721
00000000: 6457 acbf db68 61bf 62a8 3dbf 3167 ecbf
00000010: 9127 0ec0 61eb c7bf 29c5 e3be 4241 2fbf
00000020: 1eb2 46bf 0520 4ebf 0842 febf 566b 35bf
00000030: 11a6 6bbf 9fa5 3e3e a05e 85bf b29f bdbf
00000040: 1d49 a0be 5139 dfbf cf68 08c0 4ae8 c1bf
00000050: 493c 2fbf 7baf 9cbf 72ad 89bf f921 b4bf
00000060: e2ae cebf 3b43 79bf cae6 8ebf abef 22bf
00000070: 2483 c5bf 4cf4 61bf 4297 47bf eeb5 46bf
00000080: 0d98 42c0 c1d3 e3bf eaef 9dbf 6272 aebf
00000090: 3c5f dbbe b604 43be 4ddb b6bf 1182 39be
000000a0: a06f 30c0 6860 acbf 3003 d7bf 0ffc 77bf
000000b0: 614c 933c b06e bcbf 37b8 c4bf 6205 cdbf
000000c0: a85e ccbf 9c48 7cbf 4f08 753c 3a7a 7abf
000000d0: 1854 4ebf 81bf 0dc0 ff6e 71bf 343f e2bf
000000e0: 5639 81bf b06e aebf a098 9dbf 9377 92bf
000000f0: 92a5 a1bf 1be5 8fbf d487 bcbf 8c88 e5bf
00000100: 32ec 81bf 6fd1 fbbf b40e 28c0 417f 4bbf
00000110: af09 22bf ea75 39bf 8f96 77bf e3ba 06bf
00000120: 68a4 5dbf da59 a1bf bfe2 65bf d73b 0cc0
00000130: 08d8 c6bf e460 85bf 5e2c fbbe dc92 b0bf
00000140: b0a4 eabf 755e a7bf b58f 4bbf e566 43bf
00000150: d858 8ebf 42a2 21c0 1ff4 1abf 5497 05c0
00000160: 1c7b a9bf bf90 02bf 0c11 98bf 5704 cfbf
00000170: e4cf 55bf 1151 b6bf 04af 9ebf 4d88 81bf

BatchNormalization_4_param2 f4 [96]
-27.774467 -31.67444 -18.457151 -16.203608 -0.63749206 -33.764153 -28.004948 -35.045082
-16.576921 0.19074257 -11.777473 -20.24199 -10.775361 -14.312243 -22.656141 -22.74192
-22.258406 8.404269 -4.953526 14.392764 0.59567034 -0.064985014 -19.401974 -6.398405
-8.928499 -47.393707 -23.747353 -22.948027 18.378868 -50.495262 -39.73426 -17.57702
-2.31518 1.067008 -6.9313216 -15.406215 -35.713062 -11.389737 1.2332735 -21.56745
7.143292 -10.581452 -41.513134 -3.6123402 -7.1077924 1.3221562 -2.3342311 -13.104125
-7.7298183 -15.127537 -28.127062 5.5461025 -9.272809 -3.8366003 14.871535 -3.134146
3.0857875 -14.8894205 5.1063933 -3.07012 -44.076645 -12.1830635 -22.516203 -13.698095
-0.8455239 -10.228892 -5.45586 -2.51168 -3.5406322 -30.357288 -29.38467 -18.897839
-36.872883 -16.61346 -17.470192 -11.553282 -21.15862 -44.719547 -23.236073 -14.722791
-18.103727 16.110096 -10.21368 -49.629852 -18.75609 5.2693353 -16.465878 -6.0464654
-9.895744 -18.911581 -22.245344 -1.1467589 -48.755054 -23.911243 -59.807133 -4.056644
00000000: 1c32 dec1 4165 fdc1 3fa8 93c1 fda0 81c1
00000010: ae32 23bf 7e0e 07c2 220a e0c1 2a2e 0cc2
00000020: 899d 84c1 0552 433e 8870 3cc1 98ef a1c1
00000030: e167 2cc1 f3fe 64c1 c73f b5c1 74ef b5c1
00000040: 3711 b2c1 e377 0641 4983 9ec0 c348 6641
00000050: da7d 183f dd16 85bd 3e37 9bc1 bcbf ccc0
00000060: 22db 0ec1 2893 3dc2 94fa bdc1 8f95 b7c1
00000070: ec07 9341 26fb 49c2 e2ef 1ec2 bd9d 8cc1
00000080: e92b 14c0 b893 883f 63cd ddc0 db7f 76c1
00000090: 2dda 0ec2 5d3c 36c1 e8db 9d3f 238a acc1
000000a0: d995 e440 a14d 29c1 730d 26c2 9530 67c0
000000b0: 0973 e3c0 6a3c a93f 0b64 15c0 7faa 51c1
000000c0: ac5a f7c0 640a 72c1 3904 e1c1 ac79 b140
000000d0: 6d5d 14c1 dc8a 75c0 cff1 6d41 d995 48c0
000000e0: 8b7d 4540 113b 6ec1 9367 a340 d97c 44c0
000000f0: 7c4e 30c2 d4ed 42c1 2f21 b4c1 662b 5bc1
00000100: 4174 58bf 8ba9 23c1 6896 aec0 5dbf 20c0
00000110: b899 62c0 badb f2c1 ce13 ebc1 c62e 97c1
00000120: d57d 13c2 5ee8 84c1 f4c2 8bc1 3eda 38c1
00000130: db44 a9c1 d1e0 32c2 7ae3 b9c1 8d90 6bc1
00000140: 6fd4 90c1 7ae1 8041 3c6b 23c1 f884 46c2
00000150: 790c 96c1 659e a840 1eba 83c1 a57c c1c0
00000160: f854 1ec1 eb4a 97c1 77f6 b1c1 ffc8 92bf
00000170: 2d05 43c2 3a4a bfc1 813a 6fc2 07d0 81c0

BatchNormalization_4_param3 f4 [96]
792.89844 1339.284 419.48138 403.38577 345.24597 743.6976 546.3232 2115.3728
479.41904 549.69415 322.72614 1145.4443 598.091 713.28394 475.3897 669.59705
729.0417 226.42683 359.83167 469.33484 473.61554 499.22998 527.654 451.26163
216.97107 1080.0769 761.7822 686.27057 666.5256 2341.3281 604.91736 458.14563
280.29437 350.53625 255.63167 417.46713 906.65204 847.78876 402.6806 1000.27783
274.89127 383.48346 675.08984 835.59393 531.9908 372.4051 339.6355 351.77954
342.22333 771.4979 1379.4159 456.83893 356.86713 722.02765 415.28784 619.5485
405.5159 1052.542 542.0142 445.43335 886.9432 468.599 636.26276 352.52484
539.6891 771.608 317.73212 523.8096 624.2961 934.0942 545.22833 993.7255
839.4974 494.37106 589.5969 362.59528 415.16876 1282.3878 648.26013 1002.7595
657.4661 367.12894 529.4255 1517.7809 447.58145 210.98824 495.4805 400.1485
563.4373 547.73364 678.7495 481.82852 830.04285 710.7078 2066.172 830.61316
00000000: 8039 4644 1769 a744 9ebd d143 61b1 c943
00000010: 7c9f ac43 a5ec 3944 af94 0844 f735 0445
00000020: a3b5 ef43 6d6c 0944 f25c a143 382e 8f44
00000030: d385 1544 2c52 3244 e2b1 ed43 3666 2744
00000040: ab42 3644 456d 6243 74ea b343 dcaa ea43
00000050: cace ec43 709d f943 dbe9 0344 7da1 e143
00000060: 98f8 5843 7602 8744 1072 3e44 5191 2b44
00000070: a3a1 2644 4055 1245 b63a 1744 a412 e543
00000080: ae25 8c43 a444 af43 b5a1 7f43 cbbb d043
00000090: bba9 6244 7bf2 5344 1e57 c943 c811 7a44
000000a0: 1572 8943 e2bd bf43 c0c5 2844 03e6 5044
000000b0: 69ff 0444 da33 ba43 58d1 a943 c8e3 af43
000000c0: 961c ab43 dedf 4044 4f6d ac44 626b e443
000000d0: fe6e b243 c581 3444 d8a4 cf43 1be3 1a44
000000e0: 09c2 ca43 5891 8344 e980 0744 78b7 de43
000000f0: 5dbc 5d44 ac4c ea43 d110 1f44 2e43 b043
00000100: 1aec 0644 e9e6 4044 b6dd 9e43 d0f3 0244
00000110: f312 1c44 0786 6944 9d4e 0844 6f6e 7844
00000120: d5df 5144 7f2f f743 3466 1344 324c b543
00000130: 9a95 cf43 694c a044 a610 2244 9cb0 7a44
00000140: d55d 2444 8190 b743 3b5b 0444 fdb8 bd44
00000150: 6dca df43 fdfc 5243 81bd f743 0213 c843
00000160: fddb 0c44 f4ee 0844 f8af 2944 0dea f043
00000170: be82 4f44 4dad 3144 c122 0145 3ea7 4f44

BatchNormalization_2_param0 f4 [48]
2.2197168 1.4588293 1.7055768 2.3268058 0.7389736 1.0645343 2.7862856 0.78069675
1.0478787 1.602486 0.85108155 1.3121296 1.2299205 1.3045254 1.063512 1.6387138
0.85548234 1.1163185 0.76355064 1.2058927 1.2597102 1.2569201 1.1099881 1.8440078
1.7420398 1.7418985 1.8065256 1.2586602 1.5338588 1.4523998 1.3008841 1.1135015
1.2954987 1.3376704 1.9671035 1.5242358 1.7894952 1.5416112 0.7841639 1.2075065
1.6552098 1.7152675 1.5356166 1.0880715 1.6627115 1.2277074 1.3516217 1.1534017
00000000: d70f 0e40 ebba ba3f 5750 da3f 63ea 1440
00000010: 602d 3d3f a942 883f 8152 3240 bedb 473f
00000020: e420 863f 431e cd3f 7be0 593f ddf3 a73f
00000030: 096e 9d3f b0fa a63f 2921 883f 60c1 d13f
00000040: e400 5b3f 86e3 8e3f 0e78 433f b15a 9a3f
00000050: 2f3e a13f c2e2 a03f 1714 8e3f 7308 ec3f
00000060: 29fb de3f 88f6 de3f 3b3c e73f c71b a13f
00000070: 7c55 c43f 3de8 b93f 5f83 a63f 3887 8e3f
00000080: e7d2 a53f c938 ab3f 0cca fb3f 291a c33f
00000090: 2e0e e53f 8453 c53f f7be 483f 938f 9a3f
000000a0: eadd d33f e38d db3f 168f c43f ed45 8b3f
000000b0: bbd3 d43f 8425 9d3f f101 ad3f aba2 933f

Conv_0_param0 f4 [16, 2, 8]
0.0 -0.5528043 -1.0503281 -1.6584128 -1.160889 -0.88448685 0.27640215 1.6584128
1.7136933 0.773926 0.0 -0.6633651 -1.160889 -1.4925716 -1.547852 -1.160889
0.7186456 1.2161695 0.8292064 0.8292064 0.88448685 1.4372911 1.4372911 1.2161695
0.27640215 0.6633651 0.5528043 0.0 0.27640215 0.0 0.8292064 0.5528043
-1.4925716 -0.5528043 0.88448685 0.88448685 1.3820107 0.9950477 1.2714498 0.773926
0.0 -1.3267303 -1.160889 -1.0503281 -0.49752384 0.0 1.4372911 1.6584128
0.88448685 0.7186456 0.88448685 1.2161695 1.2714498 1.160889 1.160889 0.773926
-0.33168256 -0.60808474 -0.60808474 -0.44224343 -0.8292064 -0.60808474 -0.6633651 -0.44224343
0.5528043 0.0 0.5528043 0.0 0.0 0.0 0.386963 0.49752384
1.3820107 1.2161695 1.160889 1.2161695 1.1056086 0.9397673 1.160889 0.9397673
1.1056086 1.6031324 0.8292064 -0.9397673 -0.9397673 -0.7186456 -1.547852 -0.88448685
-0.44224343 0.0 1.2714498 1.3820107 1.6031324 1.2161695 0.386963 -1.3267303
-0.773926 0.386963 -0.6633651 -1.3820107 1.1056086 1.6584128 -0.5528043 0.0
0.0 -0.5528043 0.386963 0.33168256 -1.2714498 0.0 -1.547852 1.7136933
0.0 0.0 0.0 0.0 0.44224343 0.386963 0.27640215 0.0
-0.6633651 -0.7186456 -0.6633651 -1.2161695 -1.2161695 -1.4925716 -1.6584128 -1.3820107
-0.9950477 -1.2714498 -0.49752384 0.0 0.60808474 1.0503281 1.7136933 1.4925716
-0.773926 0.0 1.2714498 1.3820107 1.6584128 1.2714498 0.386963 -1.0503281
-0.386963 -1.1056086 -1.1056086 -1.4925716 -1.3820107 -1.547852 -1.547852 -1.1056086
0.0 0.0 0.0 0.386963 0.0 0.0 0.0 0.0
-0.7186456 -0.60808474 -1.1056086 -0.773926 -0.44224343 -0.49752384 -0.8292064 -0.5528043
0.386963 0.9950477 1.1056086 1.1056086 0.8292064 0.9397673 0.9950477 1.0503281
0.88448685 0.0 1.7136933 -1.7136933 -0.33168256 -1.3820107 0.0 1.4925716
1.6584128 0.7186456 -0.6633651 0.0 -1.6584128 -1.7136933 0.9397673 1.7136933
-0.386963 -0.6633651 -0.9950477 -0.6633651 -0.773926 -0.9397673 -0.9950477 -0.88448685
-0.88448685 -0.88448685 -0.60808474 -0.8292064 -0.8292064 -0.9397673 -1.1056086 -0.7186456
1.2714498 0.0 -1.160889 -1.547852 -1.3267303 -1.3267303 -0.7186456 0.7186456
-1.547852 -1.4372911 0.0 -0.773926 0.0 0.0 1.547852 1.7136933
-1.1056086 -0.9397673 -0.9397673 -0.6633651 -0.386963 0.49752384 1.6584128 1.7136933
0.8292064 1.2714498 0.8292064 0.0 0.27640215 -0.88448685 -1.2714498 -0.9397673
1.0503281 0.9950477 1.0503281 0.9950477 0.9397673 0.0 -1.1056086 -1.3820107
1.6031324 0.33168256 -0.7186456 -1.4372911 -0.9950477 -1.547852 -1.0503281 0.0
00000000: 0000 0000 9584 0dbf 2771 86bf df46 d4bf
00000010: 0398 94bf bb6d 62bf 9584 8d3e df46 d43f
00000020: 4d5a db3f 0420 463f 0000 0000 4cd2 29bf
00000030: 0398 94bf 960c bfbf 0420 c6bf 0398 94bf
00000040: 28f9 373f 71ab 9b3f df46 543f df46 543f
00000050: bb6d 623f 28f9 b73f 28f9 b73f 71ab 9b3f
00000060: 9584 8d3e 4cd2 293f 9584 0d3f 0000 0000
00000070: 9584 8d3e 0000 0000 df46 543f 9584 0d3f
00000080: 960c bfbf 9584 0dbf bb6d 623f bb6d 623f
00000090: bae5 b03f 72bb 7e3f debe a23f 0420 463f
000000a0: 0000 0000 4cd2 a9bf 0398 94bf 2771 86bf
000000b0: 72bb febe 0000 0000 28f9 b73f df46 d43f
000000c0: bb6d 623f 28f9 373f bb6d 623f 71ab 9b3f
000000d0: debe a23f 0398 943f 0398 943f 0420 463f
000000e0: 4cd2 a9be 71ab 1bbf 71ab 1bbf bb6d e2be
000000f0: df46 54bf 71ab 1bbf 4cd2 29bf bb6d e2be
00000100: 9584 0d3f 0000 0000 9584 0d3f 0000 0000
00000110: 0000 0000 0000 0000 0420 c63e 72bb fe3e
00000120: bae5 b03f 71ab 9b3f 0398 943f 71ab 9b3f
00000130: 9584 8d3f 9794 703f 0398 943f 9794 703f
00000140: 9584 8d3f 7133 cd3f df46 543f 9794 70bf
00000150: 9794 70bf 28f9 37bf 0420 c6bf bb6d 62bf
00000160: bb6d e2be 0000 0000 debe a23f bae5 b03f
00000170: 7133 cd3f 71ab 9b3f 0420 c63e 4cd2 a9bf
00000180: 0420 46bf 0420 c63e 4cd2 29bf bae5 b0bf
00000190: 9584 8d3f df46 d43f 9584 0dbf 0000 0000
000001a0: 0000 0000 9584 0dbf 0420 c63e 4cd2 a93e
000001b0: debe a2bf 0000 0000 0420 c6bf 4d5a db3f
000001c0: 0000 0000 0000 0000 0000 0000 0000 0000
000001d0: bb6d e23e 0420 c63e 9584 8d3e 0000 0000
000001e0: 4cd2 29bf 28f9 37bf 4cd2 29bf 71ab 9bbf
000001f0: 71ab 9bbf 960c bfbf df46 d4bf bae5 b0bf
00000200: 72bb 7ebf debe a2bf 72bb febe 0000 0000
00000210: 71ab 1b3f 2771 863f 4d5a db3f 960c bf3f
00000220: 0420 46bf 0000 0000 debe a23f bae5 b03f
00000230: df46 d43f debe a23f 0420 c63e 2771 86bf
00000240: 0420 c6be 9584 8dbf 9584 8dbf 960c bfbf
00000250: bae5 b0bf 0420 c6bf 0420 c6bf 9584 8dbf
00000260: 0000 0000 0000 0000 0000 0000 0420 c63e
00000270: 0000 0000 0000 0000 0000 0000 0000 0000
00000280: 28f9 37bf 71ab 1bbf 9584 8dbf 0420 46bf
00000290: bb6d e2be 72bb febe df46 54bf 9584 0dbf
000002a0: 0420 c63e 72bb 7e3f 9584 8d3f 9584 8d3f
000002b0: df46 543f 9794 703f 72bb 7e3f 2771 863f
000002c0: bb6d 623f 0000 0000 4d5a db3f 4d5a dbbf
000002d0: 4cd2 a9be bae5 b0bf 0000 0000 960c bf3f
000002e0: df46 d43f 28f9 373f 4cd2 29bf 0000 0000
000002f0: df46 d4bf 4d5a dbbf 9794 703f 4d5a db3f
00000300: 0420 c6be 4cd2 29bf 72bb 7ebf 4cd2 29bf
00000310: 0420 46bf 9794 70bf 72bb 7ebf bb6d 62bf
00000320: bb6d 62bf bb6d 62bf 71ab 1bbf df46 54bf
00000330: df46 54bf 9794 70bf 9584 8dbf 28f9 37bf
00000340: debe a23f 0000 0000 0398 94bf 0420 c6bf
00000350: 4cd2 a9bf 4cd2 a9bf 28f9 37bf 28f9 373f
00000360: 0420 c6bf 28f9 b7bf 0000 0000 0420 46bf
00000370: 0000 0000 0000 0000 0420 c63f 4d5a db3f
00000380: 9584 8dbf 9794 70bf 9794 70bf 4cd2 29bf
00000390: 0420 c6be 72bb fe3e df46 d43f 4d5a db3f
000003a0: df46 543f debe a23f df46 543f 0000 0000
000003b0: 9584 8d3e bb6d 62bf debe a2bf 9794 70bf
000003c0: 2771 863f 72bb 7e3f 2771 863f 72bb 7e3f
000003d0: 9794 703f 0000 0000 9584 8dbf bae5 b0bf
000003e0: 7133 cd3f 4cd2 a93e 28f9 37bf 28f9 b7bf
000003f0: 72bb 7ebf 0420 c6bf 2771 86bf 0000 0000

Conv_2_param0 f4 [32, 24, 8]
1.744149 -0.581383 2.5193262 -1.5503546 2.1317375 -1.5503546 0.9689716 -1.5503546
-1.162766 -1.5503546 0.0 0.581383 -0.38758865 0.581383 -0.581383 0.581383
-1.3565602 2.1317375 -1.744149 0.581383 -0.581383 0.0 0.0 -0.7751773
-0.19379432 -0.7751773 0.0 -1.162766 -0.38758865 -0.7751773 0.38758865 -0.7751773
0.0 -6.007624 -0.7751773 1.162766 -0.38758865 0.19379432 0.19379432 0.0
0.0 -1.744149 -2.1317375 0.581383 0.0 -0.7751773 0.0 -0.9689716
-0.7751773 0.0 0.581383 -0.9689716 0.0 0.0 0.0 0.0
0.581383 0.0 0.0 0.38758865 -0.38758865 0.0 0.0 0.0
0.38758865 0.0 -0.581383 0.38758865 -0.581383 0.0 0.0 0.0
0.38758865 0.0 1.3565602 -0.9689716 0.581383 -0.7751773 0.0 -0.38758865
0.581383 -1.162766 0.7751773 -0.581383 0.0 0.0 0.0 0.0
-1.3565602 -0.7751773 0.0 0.0 0.0 -0.581383 -0.38758865 0.38758865
-0.7751773 0.38758865 0.0 -0.581383 0.0 -0.38758865 -0.38758865 0.0
1.744149 -2.325532 3.1007092 -1.5503546 2.7131205 -1.9379432 0.581383 -0.7751773
-0.7751773 -0.38758865 -0.581383 -0.581383 0.0 0.0 -0.38758865 0.0
0.0 0.0 0.9689716 -0.7751773 1.162766 -1.162766 1.162766 -1.3565602
1.5503546 -1.5503546 2.5193262 -1.744149 1.162766 -1.162766 0.38758865 -0.38758865
-1.162766 1.162766 -1.162766 0.0 -0.38758865 0.0 0.581383 -0.19379432
0.38758865 -0.38758865 0.7751773 0.0 0.0 0.0 0.0 0.0
-4.0696807 -1.744149 0.0 0.581383 -0.38758865 0.0 0.0 -0.581383
0.9689716 -1.162766 0.7751773 -0.38758865 0.0 -0.38758865 0.0 0.0
1.3565602 -0.9689716 2.325532 -1.9379432 0.7751773 -0.38758865 -0.19379432 0.0
1.162766 -1.744149 1.162766 -1.744149 0.7751773 -0.38758865 0.0 0.0
0.38758865 -6.007624 -0.581383 0.7751773 -0.7751773 0.7751773 -0.7751773 0.581383
2.1317375 0.581383 2.1317375 -0.581383 2.906915 -2.325532 0.9689716 -1.5503546
-4.0696807 -3.8758864 -0.38758865 0.38758865 -0.7751773 0.581383 -0.581383 0.7751773
0.0 3.6820922 -1.744149 0.0 0.0 0.0 0.0 -1.162766
-1.162766 -0.9689716 0.7751773 0.7751773 0.7751773 -1.162766 1.5503546 -1.162766
-1.162766 -3.8758864 -2.325532 1.9379432 -0.9689716 0.38758865 0.0 0.0
0.7751773 1.3565602 -4.263475 0.581383 -0.581383 0.0 0.38758865 -1.162766
-0.38758865 2.1317375 0.7751773 -1.162766 0.581383 0.7751773 -1.744149 0.0
1.162766 -0.7751773 -0.7751773 1.162766 -0.38758865 0.0 0.0 -0.7751773
00000000: 4640 df3f 84d5 14bf a43c 2140 0572 c6bf
00000010: 636e 0840 0572 c6bf 860e 783f 0572 c6bf
00000020: 84d5 94bf 0572 c6bf 0000 0000 84d5 143f
00000030: 0572 c6be 84d5 143f 84d5 14bf 84d5 143f
00000040: c4a3 adbf 636e 0840 4640 dfbf 84d5 143f
00000050: 84d5 14bf 0000 0000 0000 0000 0572 46bf
00000060: 0572 46be 0572 46bf 0000 0000 84d5 94bf
00000070: 0572 c6be 0572 46bf 0572 c63e 0572 46bf
00000080: 0000 0000 753e c0c0 0572 46bf 84d5 943f
00000090: 0572 c6be 0572 463e 0572 463e 0000 0000
000000a0: 0000 0000 4640 dfbf 636e 08c0 84d5 143f
000000b0: 0000 0000 0572 46bf 0000 0000 860e 78bf
000000c0: 0572 46bf 0000 0000 84d5 143f 860e 78bf
000000d0: 0000 0000 0000 0000 0000 0000 0000 0000
000000e0: 84d5 143f 0000 0000 0000 0000 0572 c63e
000000f0: 0572 c6be 0000 0000 0000 0000 0000 0000
00000100: 0572 c63e 0000 0000 84d5 14bf 0572 c63e
00000110: 84d5 14bf 0000 0000 0000 0000 0000 0000
00000120: 0572 c63e 0000 0000 c4a3 ad3f 860e 78bf
00000130: 84d5 143f 0572 46bf 0000 0000 0572 c6be
00000140: 84d5 143f 84d5 94bf 0572 463f 84d5 14bf
00000150: 0000 0000 0000 0000 0000 0000 0000 0000
00000160: c4a3 adbf 0572 46bf 0000 0000 0000 0000
00000170: 0000 0000 84d5 14bf 0572 c6be 0572 c63e
00000180: 0572 46bf 0572 c63e 0000 0000 84d5 14bf
00000190: 0000 0000 0572 c6be 0572 c6be 0000 0000
000001a0: 4640 df3f 84d5 14c0 0572 4640 0572 c6bf
000001b0: c4a3 2d40 860e f8bf 84d5 143f 0572 46bf
000001c0: 0572 46bf 0572 c6be 84d5 14bf 84d5 14bf
000001d0: 0000 0000 0000 0000 0572 c6be 0000 0000
000001e0: 0000 0000 0000 0000 860e 783f 0572 46bf
000001f0: 84d5 943f 84d5 94bf 84d5 943f c4a3 adbf
00000200: 0572 c63f 0572 c6bf a43c 2140 4640 dfbf
00000210: 84d5 943f 84d5 94bf 0572 c63e 0572 c6be
00000220: 84d5 94bf 84d5 943f 84d5 94bf 0000 0000
00000230: 0572 c6be 0000 0000 84d5 143f 0572 46be
00000240: 0572 c63e 0572 c6be 0572 463f 0000 0000
00000250: 0000 0000 0000 0000 0000 0000 0000 0000
00000260: d33a 82c0 4640 dfbf 0000 0000 84d5 143f
00000270: 0572 c6be 0000 0000 0000 0000 84d5 14bf
00000280: 860e 783f 84d5 94bf 0572 463f 0572 c6be
00000290: 0000 0000 0572 c6be 0000 0000 0000 0000
000002a0: c4a3 ad3f 860e 78bf 84d5 1440 860e f8bf
000002b0: 0572 463f 0572 c6be 0572 46be 0000 0000
000002c0: 84d5 943f 4640 dfbf 84d5 943f 4640 dfbf
000002d0: 0572 463f 0572 c6be 0000 0000 0000 0000
000002e0: 0572 c63e 753e c0c0 84d5 14bf 0572 463f
000002f0: 0572 46bf 0572 463f 0572 46bf 84d5 143f
00000300: 636e 0840 84d5 143f 636e 0840 84d5 14bf
00000310: e50a 3a40 84d5 14c0 860e 783f 0572 c6bf
00000320: d33a 82c0 860e 78c0 0572 c6be 0572 c63e
00000330: 0572 46bf 84d5 143f 84d5 14bf 0572 463f
00000340: 0000 0000 66a7 6b40 4640 dfbf 0000 0000
00000350: 0000 0000 0000 0000 0000 0000 84d5 94bf
00000360: 84d5 94bf 860e 78bf 0572 463f 0572 463f
00000370: 0572 463f 84d5 94bf 0572 c63f 84d5 94bf
00000380: 84d5 94bf 860e 78c0 84d5 14c0 860e f83f
00000390: 860e 78bf 0572 c63e 0000 0000 0000 0000
000003a0: 0572 463f c4a3 ad3f 636e 88c0 84d5 143f
000003b0: 84d5 14bf 0000 0000 0572 c63e 84d5 94bf
000003c0: 0572 c6be 636e 0840 0572 463f 84d5 94bf
000003d0: 84d5 143f 0572 463f 4640 dfbf 0000 0000
000003e0: 84d5 943f 0572 46bf 0572 46bf 84d5 943f
000003f0: 0572 c6be 0000 0000 0000 0000 0572 46bf

Conv_4_param0 f4 [64, 48, 8]
0.6973269 0.0 -1.1622115 -0.6973269 0.4648846 0.0 0.2324423 -0.4648846
-0.6973269 0.2324423 -0.6973269 -0.2324423 -0.2324423 -0.4648846 -0.9297692 -0.9297692
0.0 0.0 0.0 0.0 -0.4648846 -0.6973269 -0.4648846 -0.6973269
-0.9297692 0.9297692 0.0 0.2324423 0.9297692 0.0 -1.3946538 0.0
7.2057114 -2.324423 2.5568655 1.6270962 0.9297692 0.6973269 5.8110576 -5.578615
-0.9297692 -1.3946538 -0.4648846 -0.9297692 0.0 -0.6973269 0.6973269 -1.8595384
-0.4648846 0.0 0.4648846 -0.4648846 -0.2324423 -1.1622115 -1.3946538 -1.3946538
-1.6270962 0.0 -0.4648846 -1.1622115 -0.6973269 -1.3946538 -0.9297692 -1.6270962
-2.324423 1.1622115 -0.2324423 -0.4648846 0.6973269 0.0 -0.2324423 1.3946538
0.9297692 -0.2324423 0.4648846 0.4648846 0.6973269 0.9297692 0.2324423 0.0
0.2324423 -2.0919807 0.6973269 -0.6973269 0.0 -0.2324423 -0.9297692 -0.9297692
0.0 1.1622115 0.0 0.0 0.4648846 0.0 0.4648846 -1.3946538
0.6973269 1.6270962 1.3946538 0.6973269 0.4648846 1.3946538 0.4648846 -4.8812885
-0.4648846 0.0 0.9297692 -0.4648846 0.0 0.9297692 0.0 0.4648846
0.0 -1.3946538 -0.2324423 -0.4648846 0.4648846 -1.3946538 0.0 -3.02175
1.3946538 0.0 0.2324423 0.0 0.0 0.4648846 0.9297692 0.0
-0.4648846 0.9297692 0.0 1.6270962 0.0 1.3946538 0.9297692 0.6973269
1.1622115 2.0919807 -0.4648846 0.6973269 1.6270962 2.0919807 0.9297692 0.0
-0.6973269 0.9297692 0.0 0.0 0.6973269 1.1622115 0.0 1.3946538
0.6973269 0.9297692 0.6973269 0.0 0.4648846 -0.6973269 -1.1622115 -0.6973269
-0.4648846 0.4648846 -1.3946538 -0.9297692 -1.6270962 -1.1622115 0.9297692 0.0
0.0 -0.4648846 -0.4648846 -0.4648846 0.0 -0.4648846 0.4648846 -2.0919807
-0.6973269 0.4648846 0.0 0.9297692 -0.2324423 0.0 0.2324423 -0.9297692
-0.2324423 -0.4648846 -0.6973269 -0.4648846 -0.4648846 0.0 0.0 0.0
0.0 -0.2324423 -0.2324423 0.0 -1.8595384 0.0 0.4648846 -2.0919807
-3.4866345 1.6270962 0.0 0.0 0.6973269 -0.2324423 0.4648846 1.1622115
0.0 0.0 0.0 1.1622115 1.1622115 0.4648846 1.8595384 -0.2324423
0.0 -0.9297692 0.2324423 -1.3946538 -0.4648846 0.6973269 0.0 0.6973269
-1.8595384 0.2324423 -0.6973269 0.0 -1.6270962 -0.4648846 -1.1622115 -2.324423
0.9297692 -0.9297692 0.0 0.0 0.0 -0.4648846 0.0 -0.9297692
3.2541924 -2.5568655 0.2324423 0.9297692 0.6973269 0.6973269 3.02175 -1.3946538
-1.8595384 0.4648846 -0.4648846 -0.6973269 0.4648846 -1.3946538 -0.4648846 0.9297692
00000000: 0484 323f 0000 0000 59c3 94bf 0484 32bf
00000010: 5b05 ee3e 0000 0000 5b05 6e3e 5b05 eebe
00000020: 0484 32bf 5b05 6e3e 0484 32bf 5b05 6ebe
00000030: 5b05 6ebe 5b05 eebe 5b05 6ebf 5b05 6ebf
00000040: 0000 0000 0000 0000 0000 0000 0000 0000
00000050: 5b05 eebe 0484 32bf 5b05 eebe 0484 32bf
00000060: 5b05 6ebf 5b05 6e3f 0000 0000 5b05 6e3e
00000070: 5b05 6e3f 0000 0000 0484 b2bf 0000 0000
00000080: 3095 e640 59c3 14c0 afa3 2340 b044 d03f
00000090: 5b05 6e3f 0484 323f 2ff4 b940 0484 b2c0
000000a0: 5b05 6ebf 0484 b2bf 5b05 eebe 5b05 6ebf
000000b0: 0000 0000 0484 32bf 0484 323f 5b05 eebf
000000c0: 5b05 eebe 0000 0000 5b05 ee3e 5b05 eebe
000000d0: 5b05 6ebe 59c3 94bf 0484 b2bf 0484 b2bf
000000e0: b044 d0bf 0000 0000 5b05 eebe 59c3 94bf
000000f0: 0484 32bf 0484 b2bf 5b05 6ebf b044 d0bf
00000100: 59c3 14c0 59c3 943f 5b05 6ebe 5b05 eebe
00000110: 0484 323f 0000 0000 5b05 6ebe 0484 b23f
00000120: 5b05 6e3f 5b05 6ebe 5b05 ee3e 5b05 ee3e
00000130: 0484 323f 5b05 6e3f 5b05 6e3e 0000 0000
00000140: 5b05 6e3e 03e3 05c0 0484 323f 0484 32bf
00000150: 0000 0000 5b05 6ebe 5b05 6ebf 5b05 6ebf
00000160: 0000 0000 59c3 943f 0000 0000 0000 0000
00000170: 5b05 ee3e 0000 0000 5b05 ee3e 0484 b2bf
00000180: 0484 323f b044 d03f 0484 b23f 0484 323f
00000190: 5b05 ee3e 0484 b23f 5b05 ee3e 8433 9cc0
000001a0: 5b05 eebe 0000 0000 5b05 6e3f 5b05 eebe
000001b0: 0000 0000 5b05 6e3f 0000 0000 5b05 ee3e
000001c0: 0000 0000 0484 b2bf 5b05 6ebe 5b05 eebe
000001d0: 5b05 ee3e 0484 b2bf 0000 0000 5a64 41c0
000001e0: 0484 b23f 0000 0000 5b05 6e3e 0000 0000
000001f0: 0000 0000 5b05 ee3e 5b05 6e3f 0000 0000
00000200: 5b05 eebe 5b05 6e3f 0000 0000 b044 d03f
00000210: 0000 0000 0484 b23f 5b05 6e3f 0484 323f
00000220: 59c3 943f 03e3 0540 5b05 eebe 0484 323f
00000230: b044 d03f 03e3 0540 5b05 6e3f 0000 0000
00000240: 0484 32bf 5b05 6e3f 0000 0000 0000 0000
00000250: 0484 323f 59c3 943f 0000 0000 0484 b23f
00000260: 0484 323f 5b05 6e3f 0484 323f 0000 0000
00000270: 5b05 ee3e 0484 32bf 59c3 94bf 0484 32bf
00000280: 5b05 eebe 5b05 ee3e 0484 b2bf 5b05 6ebf
00000290: b044 d0bf 59c3 94bf 5b05 6e3f 0000 0000
000002a0: 0000 0000 5b05 eebe 5b05 eebe 5b05 eebe
000002b0: 0000 0000 5b05 eebe 5b05 ee3e 03e3 05c0
000002c0: 0484 32bf 5b05 ee3e 0000 0000 5b05 6e3f
000002d0: 5b05 6ebe 0000 0000 5b05 6e3e 5b05 6ebf
000002e0: 5b05 6ebe 5b05 eebe 0484 32bf 5b05 eebe
000002f0: 5b05 eebe 0000 0000 0000 0000 0000 0000
00000300: 0000 0000 5b05 6ebe 5b05 6ebe 0000 0000
00000310: 5b05 eebf 0000 0000 5b05 ee3e 03e3 05c0
00000320: 0525 5fc0 b044 d03f 0000 0000 0000 0000
00000330: 0484 323f 5b05 6ebe 5b05 ee3e 59c3 943f
00000340: 0000 0000 0000 0000 0000 0000 59c3 943f
00000350: 59c3 943f 5b05 ee3e 5b05 ee3f 5b05 6ebe
00000360: 0000 0000 5b05 6ebf 5b05 6e3e 0484 b2bf
00000370: 5b05 eebe 0484 323f 0000 0000 0484 323f
00000380: 5b05 eebf 5b05 6e3e 0484 32bf 0000 0000
00000390: b044 d0bf 5b05 eebe 59c3 94bf 59c3 14c0
000003a0: 5b05 6e3f 5b05 6ebf 0000 0000 0000 0000
000003b0: 0000 0000 5b05 eebe 0000 0000 5b05 6ebf
000003c0: b044 5040 afa3 23c0 5b05 6e3e 5b05 6e3f
000003d0: 0484 323f 0484 323f 5a64 4140 0484 b2bf
000003e0: 5b05 eebf 5b05 ee3e 5b05 eebe 0484 32bf
000003f0: 5b05 ee3e 0484 b2bf 5b05 eebe 5b05 6e3f

MatMul_0_param0 f4 [96, 24]
0.0 0.0 0.0 0.0 -0.98703164 0.91652936 -0.98703164 0.0
1.6920543 -0.3525113 0.0 -0.5640181 -0.63452035 -0.49351582 0.0 0.0
0.0 0.0 0.0 0.0 0.0 0.0 -0.28200904 0.0
0.7050226 0.0 -0.3525113 0.0 0.0 0.0 0.5640181 0.0
0.63452035 -0.5640181 0.0 0.0 0.0 0.0 0.0 0.0
-0.3525113 0.0 0.0 0.0 0.0 0.0 1.4100451 -0.49351582
0.0 -0.28200904 0.98703164 0.0 0.5640181 0.77552485 0.0 0.0
-1.0575339 0.0 0.0 0.0 0.0 0.0 -1.1985384 0.0
0.0 0.98703164 0.0 0.0 0.0 0.0 0.3525113 -0.3525113
-0.42301357 0.0 0.77552485 0.0 0.98703164 -1.0575339 0.0 0.0
-1.903561 1.1985384 0.0 1.7625564 -1.8330587 2.0445654 1.8330587 0.0
0.0 -0.7050226 0.0 0.0 0.0 0.0 -2.18557 0.0
0.5640181 0.0 -2.18557 0.0 -1.5510497 0.42301357 0.0 0.0
1.4100451 1.4100451 0.0 -0.98703164 1.5510497 -0.5640181 -2.18557 0.0
0.0 1.8330587 0.0 0.0 0.0 0.0 -0.28200904 0.0
0.77552485 0.0 0.91652936 0.0 0.0 0.0 0.0 0.0
1.1985384 1.3395429 0.0 -2.18557 0.84602714 0.0 0.77552485 0.0
0.0 1.4805474 0.0 0.0 0.0 0.0 1.6920543 -0.42301357
-1.1280361 0.0 0.63452035 0.0 1.3395429 0.77552485 0.49351582 0.0
0.42301357 -1.621552 0.0 1.5510497 1.7625564 -0.49351582 -1.0575339 0.0
0.0 0.77552485 0.0 0.0 0.0 0.0 0.0 -0.7050226
0.0 -0.3525113 0.0 0.0 -0.42301357 -1.4100451 1.1280361 0.0
0.98703164 -0.91652936 0.0 -1.1985384 -1.0575339 0.0 -0.84602714 0.0
0.0 0.7050226 0.0 0.0 0.0 0.0 1.9740633 -0.49351582
-0.7050226 0.0 0.84602714 0.0 -0.28200904 0.63452035 -1.1280361 0.0
-0.42301357 0.42301357 0.0 2.18557 1.2690407 0.0 0.28200904 0.0
-0.3525113 0.0 0.0 0.0 0.0 0.0 0.0 -0.3525113
0.98703164 0.0 0.0 0.0 0.0 0.0 0.49351582 0.0
1.3395429 2.18557 0.0 0.0 0.84602714 0.77552485 0.3525113 0.0
0.0 0.0 0.0 0.0 0.0 0.0 0.49351582 0.0
0.0 0.0 0.63452035 0.0 1.1985384 -0.84602714 -1.4805474 0.0
-0.3525113 1.903561 0.0 -0.42301357 1.3395429 0.63452035 0.3525113 0.0
00000000: 0000 0000 0000 0000 0000 0000 0000 0000
00000010: 1bae 7cbf aba1 6a3f 1bae 7cbf 0000 0000
00000020: 3c95 d83f 5c7c b4be 0000 0000 7d63 10bf
00000030: ed6f 22bf 1bae fcbe 0000 0000 0000 0000
00000040: 0000 0000 0000 0000 0000 0000 0000 0000
00000050: 0000 0000 0000 0000 7d63 90be 0000 0000
00000060: 5c7c 343f 0000 0000 5c7c b4be 0000 0000
00000070: 0000 0000 0000 0000 7d63 103f 0000 0000
00000080: ed6f 223f 7d63 10bf 0000 0000 0000 0000
00000090: 0000 0000 0000 0000 0000 0000 0000 0000
000000a0: 5c7c b4be 0000 0000 0000 0000 0000 0000
000000b0: 0000 0000 0000 0000 5c7c b43f 1bae fcbe
000000c0: 0000 0000 7d63 90be 1bae 7c3f 0000 0000
000000d0: 7d63 103f cc88 463f 0000 0000 0000 0000
000000e0: 455d 87bf 0000 0000 0000 0000 0000 0000
000000f0: 0000 0000 0000 0000 b569 99bf 0000 0000
00000100: 0000 0000 1bae 7c3f 0000 0000 0000 0000
00000110: 0000 0000 0000 0000 5c7c b43e 5c7c b4be
00000120: 3c95 d8be 0000 0000 cc88 463f 0000 0000
00000130: 1bae 7c3f 455d 87bf 0000 0000 0000 0000
00000140: e3a7 f3bf b569 993f 0000 0000 739b e13f
00000150: aba1 eabf 29da 0240 aba1 ea3f 0000 0000
00000160: 0000 0000 5c7c 34bf 0000 0000 0000 0000
00000170: 0000 0000 0000 0000 61e0 0bc0 0000 0000
00000180: 7d63 103f 0000 0000 61e0 0bc0 0000 0000
00000190: cc88 c6bf 3c95 d83e 0000 0000 0000 0000
000001a0: 5c7c b43f 5c7c b43f 0000 0000 1bae 7cbf
000001b0: cc88 c63f 7d63 10bf 61e0 0bc0 0000 0000
000001c0: 0000 0000 aba1 ea3f 0000 0000 0000 0000
000001d0: 0000 0000 0000 0000 7d63 90be 0000 0000
000001e0: cc88 463f 0000 0000 aba1 6a3f 0000 0000
000001f0: 0000 0000 0000 0000 0000 0000 0000 0000
00000200: b569 993f 2476 ab3f 0000 0000 61e0 0bc0
00000210: 3c95 583f 0000 0000 cc88 463f 0000 0000
00000220: 0000 0000 9482 bd3f 0000 0000 0000 0000
00000230: 0000 0000 0000 0000 3c95 d83f 3c95 d8be
00000240: 7d63 90bf 0000 0000 ed6f 223f 0000 0000
00000250: 2476 ab3f cc88 463f 1bae fc3e 0000 0000
00000260: 3c95 d83e 048f cfbf 0000 0000 cc88 c63f
00000270: 739b e13f 1bae fcbe 455d 87bf 0000 0000
00000280: 0000 0000 cc88 463f 0000 0000 0000 0000
00000290: 0000 0000 0000 0000 0000 0000 5c7c 34bf
000002a0: 0000 0000 5c7c b4be 0000 0000 0000 0000
000002b0: 3c95 d8be 5c7c b4bf 7d63 903f 0000 0000
000002c0: 1bae 7c3f aba1 6abf 0000 0000 b569 99bf
000002d0: 455d 87bf 0000 0000 3c95 58bf 0000 0000
000002e0: 0000 0000 5c7c 343f 0000 0000 0000 0000
000002f0: 0000 0000 0000 0000 1bae fc3f 1bae fcbe
00000300: 5c7c 34bf 0000 0000 3c95 583f 0000 0000
00000310: 7d63 90be ed6f 223f 7d63 90bf 0000 0000
00000320: 3c95 d8be 3c95 d83e 0000 0000 61e0 0b40
00000330: ed6f a23f 0000 0000 7d63 903e 0000 0000
00000340: 5c7c b4be 0000 0000 0000 0000 0000 0000
00000350: 0000 0000 0000 0000 0000 0000 5c7c b4be
00000360: 1bae 7c3f 0000 0000 0000 0000 0000 0000
00000370: 0000 0000 0000 0000 1bae fc3e 0000 0000
00000380: 2476 ab3f 61e0 0b40 0000 0000 0000 0000
00000390: 3c95 583f cc88 463f 5c7c b43e 0000 0000
000003a0: 0000 0000 0000 0000 0000 0000 0000 0000
000003b0: 0000 0000 0000 0000 1bae fc3e 0000 0000
000003c0: 0000 0000 0000 0000 ed6f 223f 0000 0000
000003d0: b569 993f 3c95 58bf 9482 bdbf 0000 0000
000003e0: 5c7c b4be e3a7 f33f 0000 0000 3c95 d8be
000003f0: 2476 ab3f ed6f 223f 5c7c b43e 0000 0000
