submission/notebooks/models/ONNX/model_export.onnx (onnx, 404430 bytes, 29 tensors)

5.weight f4 [24]
00000000: 17af bf3f 2a62 a23f fa00 873f 252a a53f
00000010: 42ed ee3f 0e92 a33f 8f3f 993f d5b4 2640
00000020: a48f 3540 f06e c63f eef9 4540 d14c 9e3f
00000030: ff6a a73f 1e18 ad3f 5dfe 4e3f 1305 b13f
00000040: a559 533f 0cd0 653f 3418 3c40 e073 a03f
00000050: 1402 3d40 2474 853f a505 9c3f dedb e23f
1.4975308 1.2686207 1.0547173 1.2903486 1.8666155 1.2778947 1.1972522 2.604787
2.8368921 1.5502605 3.0933795 1.2367193 1.3079528 1.3522985 0.8085688 1.3829674
0.8255866 0.8977058 2.9389772 1.2535362 2.9532518 1.0426068 1.2189223 1.7723348

5.bias f4 [24]
00000000: 4a4e c6bf 4f7d 6fbe 3db2 fcbe 2848 2cbe
00000010: 01ee 74be 32a5 93be 155d 2bbf a634 cfbf
00000020: 2884 e2bf 5359 8d3e 6427 e1bf d990 89be
00000030: 8b72 4abf c809 bfbf 6761 8dbe 7b71 b2bf
00000040: d35b 4bbf bcc8 ffbe a312 debf 5811 8abe
00000050: 303c d9bf 7123 75bf 9a23 b5bf ef3a 923e
-1.5492642 -0.23387645 -0.49354735 -0.168244 -0.23918916 -0.28836972 -0.66938907 -1.6187942
-1.7696581 0.2760721 -1.7590146 -0.26868322 -0.7908103 -1.492486 -0.27613375 -1.3940881
-0.7943699 -0.49957836 -1.7349437 -0.26966357 -1.6971493 -0.95757204 -1.415149 0.28560588

5.running_mean f4 [24]
00000000: 9a50 01c2 6a60 b6c2 142a 44c2 a5c3 06c2
00000010: 1f51 35c3 33e6 4ec2 bda8 8cc2 491c 6bc2
00000020: 07c6 77c2 bf54 15c2 8166 74c2 8c17 36c2
00000030: c690 9ac2 fb51 2cc2 8b6f ccc1 e11a 12c2
00000040: af53 dcc1 6167 64c2 e7fc 83c2 ed33 cc42
00000050: 33c8 6cc2 c1c1 d8c1 dc61 21c1 6b3c 1943
-32.328712 -91.18831 -49.041092 -33.69106 -181.31688 -51.724804 -70.32957 -58.777622
-61.943386 -37.33276 -61.1001 -45.522995 -77.28276 -43.08006 -25.554464 -36.52625
-27.540861 -57.100956 -65.99395 102.10142 -59.195507 -27.094606 -10.086391 153.23601

5.running_var f4 [24]
00000000: ef62 2845 1975 2045 faef d745 f721 1f46
00000010: 1c1a 5845 60b9 1246 6bab 4446 78ed 1b46
00000020: 5ab8 1c46 ccf8 9445 598b 3d46 5568 1e46
00000030: 7d7d 3146 9fa1 1645 db43 cb45 74b6 3445
00000040: 3f24 e244 b021 1846 8fd2 4b46 e305 2d45
00000050: e462 3146 25ca ed44 9122 c044 2847 1a45
2694.1833 2567.3186 6909.997 10184.491 3457.6318 9390.344 12586.8545 9979.367
10030.088 4767.0996 12130.837 10138.083 11359.372 2410.1013 6504.482 2891.4033
1809.1327 9736.422 13044.64 2768.368 11352.723 1902.317 1537.0802 2468.4473

9.weight f4 [32]
00000000: 0460 b63f 5e7b ba3f 1011 d63f fc58 6f3f
00000010: fe87 743f 2ddc 6c3f 5eaf c13f 825f 0840
00000020: 718a 693f 0db7 cc3f c600 773f ab3e 833f
00000030: d9ab 6e3f 1446 c03f 587e 8b3f 6e96 d33f
00000040: 8469 2740 5b2c 973f 1e58 f13f fda7 553f
00000050: 6687 cf3f e70e b43f a493 563f ca28 903f
00000060: 3c00 3640 20a2 b23f dfc0 973f 5a53 be3f
00000070: 6f28 bc3f b391 9d3f 7e96 8c3f a327 963f
1.4248052 1.4568899 1.6723957 0.93495154 0.9552001 0.9252346 1.5131643 2.1308293
0.9122687 1.5993363 0.96485555 1.02535 0.9323097 1.5021386 1.0897932 1.6530282
2.6158152 1.1810411 1.8855016 0.83459455 1.6213195 1.4067048 0.8381903 1.1262448
2.8437643 1.3955727 1.1855735 1.4869187 1.4699839 1.2310089 1.0983427 1.1730846

9.bias f4 [32]
00000000: 92e5 a4bf 54bd e8bf 6504 36bf c91a eabe
00000010: 7db9 30bf bc6d 503f 853f cabe 7cd4 a5bf
00000020: 1d6b 1dbf e260 20c0 ed63 20bf 787c 8ebf
00000030: e727 62bf e9a9 9cbf 2558 81bf 9f52 5dbf
00000040: f474 5fc0 3482 79be 94f8 94bf 66d3 08bf
00000050: 535d 00c0 94fd 81bf 7c2a b73c 90ab e7be
00000060: 1b42 50c0 f96c 0dbf c96a 6cbe 6f56 b7bf
00000070: e2f7 64bf 4586 bcbf ca65 4fbe 973f b3bf
-1.2882559 -1.8182778 -0.71100456 -0.4572356 -0.6903303 0.8141744 -0.39501587 -1.295547
-0.61491567 -2.5059133 -0.62652475 -1.1131735 -0.88342136 -1.2239352 -1.0105025 -0.86454195
-3.4915133 -0.24366075 -1.163836 -0.5344757 -2.005696 -1.0155511 0.022359125 -0.4524808
-3.2540348 -0.55244404 -0.2308761 -1.4323252 -0.8944074 -1.4728476 -0.20253673 -1.4003781

9.running_mean f4 [32]
00000000: ca7e 8dc1 a3d7 edc0 46a6 43c0 b343 d9c0
00000010: a454 ebc0 f05a a841 23f8 84c0 4376 5e40
00000020: 419e 16c1 f358 8e40 226b b9c0 b4c2 2cc1
00000030: e043 1ec1 2fd2 8dc1 db68 abc0 9939 3541
00000040: 7ec9 90c0 9cf4 c540 0acf 9ec1 1244 e4c0
00000050: cd75 1ac1 e8b9 913f 9ba7 3d41 6ab0 2cbc
00000060: 8240 3c40 0e91 8e3f 76a0 eac0 3134 37c1
00000070: 3b4d 7dc1 6989 bfbe 3443 15c1 0250 2141
-17.686909 -7.432573 -3.0570235 -6.789514 -7.354082 21.044403 -4.15529 3.4759681
-9.413636 4.448358 -5.7943277 -10.797535 -9.891571 -17.727629 -5.3565497 11.326562
-4.524596 6.1861095 -19.851093 -7.1333094 -9.65376 1.1384859 11.853419 -0.010540107
2.9414372 1.1138017 -7.3320875 -11.450242 -15.831355 -0.37409523 -9.328907 10.082033

9.running_var f4 [32]
00000000: cef2 8042 19c9 d742 402e 1744 3d25 1343
00000010: 7ddf 9d42 4dd0 3c44 7d32 2644 d626 1543
00000020: b79e 1143 b25a 6a42 7080 1b43 3a5c 6642
00000030: 828a e142 88ab 3043 6e9f ad42 af14 a343
00000040: 437d da42 2086 ce43 c308 0d43 d8bd 8142
00000050: 99a0 df42 6fdc ca42 5ca7 2f43 9af1 8743
00000060: b8cf 0643 699e d443 67f1 6d43 e538 9a42
00000070: 3791 b942 ec52 da42 de2a 6f43 e90c db42
64.47423 107.89277 604.72266 147.14546 78.9365 755.2547 664.7889 149.1517
145.61998 58.58857 155.50171 57.590065 112.77052 176.67004 86.811386 326.1616
109.24465 413.04785 141.03423 64.87079 111.81367 101.430534 175.65375 271.8875
134.8114 425.23758 237.94298 77.11112 92.78362 109.16196 239.16745 109.525215

12.weight f4 [48, 32, 8]
00000000: 3444 eb3d 0274 e83d 99b0 c5bd aeee b73c
00000010: 6e56 e53e 095f f43d 080a bfbe 8dc8 8b3e
00000020: 5bf9 203e 42be 403e 2dc3 febd 839b 033e
00000030: 0bd4 4dbe 3761 67be 90fe c73e 7e20 2f3e
00000040: fdc1 ae3d 38d1 e33e 8235 30bf 36d7 9ebf
00000050: 4e9d 91bf 18a2 64bf b1f4 92be fea8 c83e
00000060: 799b c63b 8a2a df3d 607a 0e3e fb13 6a3e
00000070: 1fe7 bc3e 8310 0bbe f3b2 7cbe a1c8 9abd
00000080: 9efe 3f3e d879 91be 58f9 66bf f83b c33e
00000090: a8d4 de3e 8e80 12bf 5698 2bbf ab28 b1be
000000a0: 2cd0 f13d 3546 f6bc 0c9e 423e ba41 f83c
000000b0: 5bc8 e43e 8882 e83e 8739 c1be fb5f 5a3f
000000c0: 9bd9 8ebf 6ae5 3fbf 0d98 8cbe 8827 b8be
000000d0: 19a0 85bf d2e3 5cbf 56d1 06bf fd5d a7be
000000e0: b666 8a3c e38f 44be dad7 813e 77aa ab3e
000000f0: e538 a840 1df4 603f ac6e ce3e ce0e 98bd
00000100: 48bd be3d c276 6b3e 53c8 173f 1f6a 173f
00000110: 1a8c 9e3e 8ceb 063b e254 303d 77a0 933d
00000120: 6ad5 d3bd 3459 fc3d 94d7 0dbf 0b66 453f
00000130: e23b 933f 36d8 56bd d099 b7bb b1dd 19be
00000140: a4a0 f6bd 42d4 1cbe 7010 1f3e 7fbb 453e
00000150: bc9c 133f 068e 6cbd ba9e 583d 453a 653e
00000160: 235f 76be 3557 d8bd 82d1 d33d 63b9 c23e
00000170: accf 773f 42d0 1a3f 768e 92be bffd c03c
00000180: 859a 4dbd 1ab6 c5be 5dc9 67be 3b8b 9fbd
00000190: d66d ac3f 0eeb 8b3f 71d3 bf3c eee6 c1be
000001a0: 9383 18bd 932f 69bd 1620 febd 285b 4a3d
000001b0: 7d6b e33d 31b6 903c 5f6e b83c 8003 e03d
000001c0: 6821 01be 50ac c03d 01fe 8a3e 9fde 1b3f
000001d0: 4b4c 603f 8ed2 f23d 92ab ad3d 8a17 3dbd
000001e0: 4fa0 053e e4b4 c1be 01a0 a93d ed37 c0be
000001f0: 9400 9f3d d6f6 53be 6140 2ebd ef65 8f3e
00000200: 5817 21be 0920 bdbe a6da 60bf d472 a2bf
00000210: 7b20 fb40 bc2e f940 2a21 5bbf 55b9 8ebf
00000220: 5162 913d d0c6 e83d 7941 8dbd 35d4 d8bf
00000230: 2403 70bf 0b3b 1a3e 27a8 2ebe 156e b63d
00000240: 2978 fb3d 4060 e23d ce0f e03d 815a 093e
00000250: 4677 c13e e8dd 0e3e c8d7 cfbd 93ec ea3d
00000260: 504d da3e ded6 a83e a12d 933e 89b3 273f
00000270: d7b7 e4bd fb73 03bf 61e9 2fbf 540c 063e
00000280: cb68 ae3d 005f 1d3d 91fc bbbd 0bd7 b93e
00000290: 3483 efbd 2db5 a6be 8ce3 073e e576 033e
000002a0: 293c 20be 4398 e3be ab38 3cbf 7ffb 1c3f
000002b0: bdb8 7d3f 7563 213f 9f30 00bf 6715 d23e
000002c0: adba d43d 099d d53d bd8b 3f3f 8f22 153e
000002d0: 8388 21bf cfc4 443f 073c 593f b309 013e
000002e0: fecc 24bf 1a90 6e3f 6104 50bf cfe9 72bd
000002f0: 9c8e 25be 555b b53e 6413 cdbe 0ad4 9abd
00000300: c702 11bf 896d b3be f114 6cbf 351d f9bf
00000310: e4ff fc40 2177 d1bf 58bc 9cbf 0efb 74bf
00000320: 6045 d23e 5fe4 16bf be9a b5bc 7454 8c3e
00000330: 239b 6fbe a51f c2be 6add 83bf 4ded 82be
00000340: 8a83 173e aaa0 9a3e 2e65 d0bc 0551 c43e
00000350: 2993 bc3e b499 fd3c ad6a 5fbe ccf6 15bd
00000360: 27fb 753e 0ac1 ca3e 03bb 5c3d d079 a73e
00000370: 77e6 c4be ae08 1ebf 6caa 5cbd 0edf ebbd
00000380: 4ec5 263e 35d0 133e 0550 0abe b9e8 12bf
00000390: 6a34 bdbe 5cc4 05be 4d4f 83bc 35ca bd3c
000003a0: a006 453e 81ad c3bd 3012 ffbe bb4f 56bf
000003b0: 05bc c7be d359 2fbe 8ab1 043e 32ed 3a3e
000003c0: 91c4 8f3e f6e7 f7be 1151 ccbe 3595 f73f
000003d0: 8058 b83f cb83 10be 7759 23bf 267a c83e
000003e0: 0969 86be 3c50 4ebc 0b33 23bf c987 e0be
000003f0: 9d17 1cc0 4b2e ddbf 71a9 b1bc abd6 1fbe
0.11487618 0.11350252 -0.09652824 0.022452679 0.44792503 0.11932189 -0.3731234 0.27301446
0.15720122 0.18822578 -0.124395706 0.12852292 -0.20100419 -0.22595678 0.39061403 0.17102239
0.08533094 0.4449556 -0.68831646 -1.2409427 -1.137613 -0.89309835 -0.2870231 0.3919143
0.0060610143 0.108967856 0.1391387 0.22859184 0.3689508 -0.13580517 -0.24677639 -0.07557798
0.18749472 -0.28413272 -0.9022422 0.3813169 0.4352162 -0.5722741 -0.6702932 -0.3460134
0.11807284 -0.030062774 0.19005603 0.030304778 0.4468411 0.45412087 -0.37739202 0.85302705
-1.1160158 -0.74959433 -0.27459756 -0.3596766 -1.0439483 -0.86285126 -0.5266317 -0.32688895
0.01689468 -0.19195513 0.25359994 0.33528492 5.256945 0.8787249 0.4031881 -0.07424699
0.09313446 0.22994521 0.59290045 0.591463 0.30966264 0.0020587174 0.0430497 0.072083406
-0.1034344 0.12321702 -0.5540707 0.7710883 1.150265 -0.05245229 -0.0056030527 -0.15025975
-0.120423585 -0.15315345 0.15533614 0.19309805 0.5766103 -0.05775263 0.05288575 0.2238551
-0.2405973 -0.105635084 0.10342695 0.38032064 0.9680126 0.60474026 -0.28624314 0.023558496
-0.05019619 -0.38615495 -0.22635408 -0.07790228 1.3471019 1.0931108 0.023416253 -0.37871498
-0.037234854 -0.056930136 -0.12408464 0.04940334 0.11104486 0.017665 0.022513567 0.109381676
-0.126104 0.09407866 0.27146915 0.6088657 0.87616414 0.11856566 0.0847999 -0.046165027
0.13049434 -0.3783332 0.082824714 -0.37542668 0.07763782 -0.20699629 -0.042541865 0.28007457
-0.15731561 -0.36938503 -0.8783363 -1.2691293 7.847715 7.786955 -0.8559748 -1.1150309
0.070988305 0.113660455 -0.068972535 -1.693976 -0.9375479 0.15061586 -0.17056333 0.08907715
0.12278778 0.110535145 0.109405145 0.13413431 0.3778631 0.13951838 -0.10148579 0.11470904
0.4263711 0.3297643 0.2874575 0.65508324 -0.11167877 -0.5134885 -0.6871548 0.1309064
0.085160814 0.038420677 -0.091790326 0.36296877 -0.11694947 -0.325601 0.13270396 0.12838323
-0.1564795 -0.44452104 -0.7352397 0.6132125 0.99110013 0.63042384 -0.5007419 0.41031954
0.10387168 0.10430343 0.748226 0.14563964 -0.63098925 0.76862806 0.8485722 0.12601356
-0.64375293 0.9318863 -0.8125668 -0.05930501 -0.16167682 0.35421243 -0.40053856 -0.075599745
-0.5664486 -0.35044506 -0.92219454 -1.9462038 7.9062366 -1.636448 -1.2244978 -0.9569558
0.41068554 -0.58942217 -0.022168513 0.27408183 -0.23399024 -0.37914768 -1.0301945 -0.2557167
0.14796272 0.30200702 -0.025438871 0.38343063 0.36831024 0.03095708 -0.21818037 -0.036612317
0.24021588 0.39600402 0.053889286 0.32710123 -0.3845708 -0.61731994 -0.053873464 -0.11517154
0.16286203 0.14434893 -0.13507088 -0.57386357 -0.3695405 -0.13063186 -0.016029024 0.023167709
0.19240808 -0.095545776 -0.49818563 -0.8371541 -0.39010635 -0.17124109 0.12958351 0.18254545
0.28079656 -0.4841916 -0.399056 1.9342409 1.4402008 -0.14112775 -0.6380839 0.39155692
-0.2625201 -0.012592372 -0.6374976 -0.43853596 -2.4389412 -1.7279752 -0.021687241 -0.15609233

13.bias f4 [48]
00000000: f33c 83c0 7efa f7bf aa2f a9be 058d 0cc0
00000010: 4187 963f 0dd4 2cbf bde4 f3bf dcc6 d3be
00000020: 48e0 dcbe 3e46 c3bf 1f4d 673e d30d 9cbe
00000030: ccfe 56bf 26b3 9bbe 26ec 53bf ef57 50bf
00000040: f78d 693c 6a17 74bf 1d57 a6be b63e 4bbf
00000050: c8e4 cbbf cec9 95bf d4c6 90be 3565 c5bf
00000060: bdb9 45c0 60e3 94bf 5e3c d0bf 1219 15bf
00000070: f0b6 0fc0 ab50 16bf 00d6 48bf 6657 31bf
00000080: ec78 25be c429 57bf 4663 3fc0 9b4e 9fbf
00000090: 5578 d4bf 56d5 3ebf 6066 9bbe 9132 463f
000000a0: 22e4 0dbf 5d39 e2be 93d1 7dbf 1d3f 46bf
000000b0: 6859 c7bf 4225 bcbf 0eb1 0ac0 9a3b 8ebf
-4.10119 -1.9373319 -0.33044177 -2.1961071 1.1760026 -0.67511064 -1.905418 -0.41362655
-0.43139863 -1.5255811 0.22588013 -0.30479297 -0.8398254 -0.30410117 -0.8278221 -0.81384176
0.014255038 -0.9534823 -0.32488337 -0.79392564 -1.5929193 -1.1702211 -0.28276694 -1.5421511
-3.0894616 -1.1631889 -1.6268423 -0.5824138 -2.2455406 -0.5871684 -0.7845154 -0.69273984
-0.1615941 -0.84048104 -2.9904342 -1.2445863 -1.6599222 -0.74544275 -0.30351543 0.7742091
-0.5542623 -0.4418439 -0.9914791 -0.77440053 -1.557416 -1.469887 -2.1670566 -1.1111939

13.running_mean f4 [48]
00000000: a474 5840 c479 afc0 b5ee 2dc2 b492 64c1
00000010: 2180 e740 4c67 84c1 a4f4 b2c1 04bf fa40
00000020: e02c 2241 ca52 42c1 11ea d63f b969 06bf
00000030: f21b bec0 a6e4 f9bf 0e86 9ac1 f9ca 9940
00000040: 89a1 4bc1 a1c9 08c0 a54d c3c1 aa7e 8440
00000050: 9cd8 f6c0 af74 e03e 77c4 cfc1 b567 3fc1
00000060: d160 e1c0 468e 0cc0 db1c 62c1 162c afc0
00000070: 5aff 1ac1 0018 86c0 2aa3 983f 3018 0dc1
00000080: 7dbe 92c1 f08b 8840 9adf 60c0 c8d1 10c0
00000090: fb8e bac0 e5f0 6941 380b b1c0 1c14 ccc1
000000a0: d31c b5c1 b0fc 3bc1 3798 3ac2 840f 8ec0
000000b0: bbf3 eb40 6e60 0ac1 bc99 b5c0 0035 54bf
3.3821192 -5.483614 -43.483112 -14.285816 7.2343907 -16.550438 -22.369453 7.8358173
10.135956 -12.145212 1.6790181 -0.5250507 -5.9409113 -1.9522903 -19.315456 4.806027
-12.726937 -2.1373065 -24.412912 4.140462 -7.7139416 0.43839023 -25.97093 -11.962819
-7.0430684 -2.1961837 -14.132045 -5.4741316 -9.687342 -4.1904297 1.1924794 -8.818405
-18.343012 4.267082 -3.5136476 -2.262804 -5.8299537 14.621312 -5.5326195 -25.509819
-22.639074 -11.749191 -46.648647 -4.439394 7.3735023 -8.648542 -5.6750164 -0.8289337

13.running_var f4 [48]
00000000: 30d0 0143 568b d642 3fa4 d044 b588 d842
00000010: 69d7 7943 095f 3843 a6cd ff43 c9e7 db42
00000020: d116 8143 ab12 e642 49d7 a843 f7f0 0844
00000030: e994 cb42 4daf 1d44 30a3 0543 c9a1 5d44
00000040: 50b5 7e43 113e ce42 ee04 1643 9715 5643
00000050: 14c3 8342 f6d7 d542 d358 9243 72c3 0344
00000060: 7188 3b42 d7d9 1743 ed07 1c43 45f6 d143
00000070: 83c8 af42 3e28 0c43 260b 8943 0656 7843
00000080: 6866 3744 b831 9d43 d94a 6d43 d0e5 0043
00000090: 6428 2343 3107 c743 7aaa ce42 157b 5344
000000a0: 83ad 4a44 f2d0 c243 eeb2 8d44 2b59 e742
000000b0: 9c6d e143 add6 cb42 823f ba42 9695 0343
129.81323 107.27214 1669.1327 108.267006 249.84145 184.37123 511.60663 109.952705
258.17825 115.03646 337.68192 547.7651 101.79084 630.7391 133.63745 886.5279
254.70825 103.12122 150.01926 214.08434 65.88101 106.9218 292.69394 527.05383
46.883244 151.85094 156.03096 419.92398 87.891624 140.1572 274.0871 248.33603
733.6001 314.38843 237.29237 128.8977 163.15778 398.05618 103.33296 845.92316
810.7111 389.6324 1133.5916 115.67416 450.85632 101.91929 93.12404 131.58432

17.weight f4 [64]
00000000: dcb2 873f cc8a af3f d36b 9f3f 2b0d b33f
00000010: 4f48 c33f 16cc c43f 665e ca3f a4aa 6f3f
00000020: da7f a53f 3ba5 8a3f 4b8d 7c3f 519f c83f
00000030: d9f2 963f c1e6 a93f 9097 a73f e4f8 aa3f
00000040: 58c3 da3f 4706 a33f f309 e53f b06a b13f
00000050: f19d aa3f 0e5e c43f 402b 8c3f 8513 7e3f
00000060: 4cc6 d43f 30da ee3f da98 8c3f c9fe 8d3f
00000070: b4e4 b13f fad5 c73f 9839 8b3f d3f1 9c3f
00000080: 8e73 ce3f 8e7b c93f 13e4 cd3f c0ff 7c3f
00000090: ce4d 9c3f 9fe6 1640 692f ac3f 895b b73f
000000a0: 3a4f 933f c40c ae3f 838e e43f 942a cd3f
000000b0: 5e5b 973f 6872 c43f f101 a63f c9c0 a43f
000000c0: 69ba 933f e7fc 8a3f 4193 ab3f ca80 aa3f
000000d0: d07f b23f 0eea d53f 7b28 c13f f277 e13f
000000e0: 1090 a33f 784d 933f 2090 df3f d14e a83f
000000f0: 9b17 e83f bdd2 ba3f 2ff4 d13f b243 bc3f
1.0601459 1.3714232 1.245478 1.3988394 1.5256442 1.5374782 1.5810058 0.9361975
1.2929642 1.0831674 0.98653096 1.567362 1.1792861 1.3273546 1.3093128 1.3357205
1.7090864 1.2736291 1.7893661 1.3860683 1.332945 1.5341203 1.0950699 0.99248534
1.6623015 1.8660336 1.0984147 1.1093379 1.389792 1.5612175 1.0876951 1.2261299
1.6129014 1.5740831 1.6085228 0.98827744 1.2211244 2.357826 1.3451968 1.4324809
1.1508553 1.3597646 1.7855991 1.6028619 1.1824758 1.5347414 1.2969342 1.2871333
1.1541263 1.085843 1.3404313 1.3320553 1.3945255 1.6712053 1.5090479 1.761473
1.2778339 1.1508017 1.7465858 1.3149053 1.8132204 1.4595562 1.6402644 1.4708159

17.bias f4 [64]
00000000: cf3d 58bf 1c40 d7be cb00 9dbf 032b 77c0
00000010: 971d a3bf b13d d4bf b90c 85bf bf2b 7ebd
00000020: 0474 5abf 7e0e 70bf 8986 3ebf d658 03c0
00000030: 8972 80bf 76ec bdbf 7480 1fbf 8abd cabf
00000040: 56a8 e4bf dfef 2bbf 1d64 7bbe 4523 a33d
00000050: 93ad 45bf dbe1 e4bf 49da 37bf 5244 2bbf
00000060: a54d b6bf 5e3a 8cbf 4c62 c7bf daef 31bf
00000070: 709d 99bf c18b 66bf 9e20 74bf 2f41 40be
00000080: 4a4a 91bf 122c 22c0 ebe4 cdbf b1c8 30bf
00000090: fa88 c2bf 30d4 60c0 1137 75bf 3080 efbf
000000a0: d159 1ebf cd56 28be ec99 05c0 42ca b5bf
000000b0: dfa2 b33c c07e e8be dfb2 85bf 498e 73bf
000000c0: 7db9 6ebf ac6e 2ebb 578f 89bf afa8 1cc0
000000d0: 28f8 a4bf dc0f bebf 9226 fdbf 8370 e4bf
000000e0: 88b0 bdbf 28b7 9cbf 4d1d 55bf ff29 e3bf
000000f0: 1b7f 0ac0 092d 41c0 daf9 8fbf dba2 16c0
-0.8446931 -0.420411 -1.2265867 -3.8620002 -1.2743405 -1.6581327 -1.0394508 -0.06205344
-0.85333276 -0.93772113 -0.74424034 -2.052297 -1.0034953 -1.4837787 -0.6230538 -1.5839093
-1.7863872 -0.6716289 -0.24549909 0.079657115 -0.7721798 -1.7881426 -0.7181745 -0.66901124
-1.4242445 -1.0955312 -1.5576873 -0.6950661 -1.2001171 -0.90057 -0.9536227 -0.18774866
-1.1350796 -2.5339398 -1.6085485 -0.6905623 -1.5198052 -3.512951 -0.9578715 -1.8710995
-0.618558 -0.16439362 -2.0875196 -1.4202349 0.021928249 -0.45409203 -1.0445212 -0.95138985
-0.9325178 -0.0026616259 -1.0746869 -2.4477956 -1.2888231 -1.484859 -1.9777396 -1.7846836
-1.4819498 -1.2243395 -0.83247834 -1.7747191 -2.164008 -3.0183737 -1.1248124 -2.35369

17.running_mean f4 [64]
00000000: 298d 6441 3c0e 7ebf a2f0 0fc1 421b 89c0
00000010: 67a6 24c0 9af1 1f41 9834 09c2 3b91 25c1
00000020: 60ad abc0 448f a43f 3c9a 99c1 8840 2ac1
00000030: c02f cfc1 d183 a0c1 3e09 b5c0 de21 0fc2
00000040: 3adb 00c2 d6bd 73bf f1ab 46c1 2c7d b1c1
00000050: ec49 a3c1 946a 23c1 8807 5bc1 51cd 70c1
00000060: 5185 4cc1 c29e 9cc1 05b0 02c1 e99d 8841
00000070: 5b65 eec0 b225 2bc2 47e4 0fc2 573c 2ec0
00000080: ec10 9e40 9b80 503e 578a e03f 75e6 6e40
00000090: c141 423f 4dea 01c1 7ba0 c8c1 27df ebc0
000000a0: 71ec cbc1 4b69 5741 6b11 f83f 7984 d2c1
000000b0: 4984 d2c1 29ab b3c1 3d93 33c1 3602 ecc1
000000c0: 8f54 d1c1 f989 0fc1 82e1 2ac1 2552 c941
000000d0: e08e e0c0 de80 853f f6da 99c1 34ba b9c1
000000e0: f935 86c1 6c70 c041 a116 fdc1 3dbc 0241
000000f0: 73fa 2ac0 f779 b6bf d4ad 9940 3ef4 61c1
14.284463 -0.9924047 -8.996248 -4.2845774 -2.5726564 9.996485 -34.30136 -10.347957
-5.364914 1.2856221 -19.20031 -10.640755 -25.898315 -20.064363 -5.657378 -35.783073
-32.21409 -0.9521154 -12.416978 -22.18612 -20.411095 -10.21352 -13.689339 -15.050126
-12.782548 -19.577518 -8.1679735 17.077105 -7.4498725 -42.78681 -35.972927 -2.7224329
4.9395657 0.20361559 1.7542218 3.732816 0.7588158 -8.119702 -25.07836 -7.3709903
-25.49045 13.463206 1.9380316 -26.314684 -26.314592 -22.458574 -11.223447 -29.50108
-26.166288 -8.971185 -10.680056 25.16511 -7.017441 1.0429952 -19.231915 -23.21592
-16.776354 24.054893 -31.63605 8.170957 -2.6715362 -1.4255971 4.8024693 -14.122129

17.running_var f4 [64]
00000000: fe3a 7443 ce4f a543 b4dd 2244 f7ef e442
00000010: a0aa 8443 0928 c843 0d05 f643 61ff 9d43
00000020: 2124 cb43 9ac5 aa43 1bd5 6743 40a9 1643
00000030: fb1e a543 bf40 7743 b4f8 0a43 ec61 e643
00000040: 1d4d 0544 973d 8a43 2e3e 5744 07c8 9443
00000050: 0590 9743 fd7c 5343 2287 8143 460d 9543
00000060: 25ef 8943 20e5 a943 b4eb 3e43 5399 1144
00000070: 9a78 9c43 012c 4e44 9fc7 a343 daf0 5643
00000080: 03d5 8d44 3afc 1a43 9019 6a43 a0eb 9643
00000090: b9d8 b243 8b99 ba42 693f 0344 46a3 1943
000000a0: a953 ff43 2198 4644 6242 1e43 a1be d643
000000b0: ab71 2d44 9af7 b343 00a3 9c43 639c 5644
000000c0: c636 a643 5119 4a43 815c c743 aa8f f643
000000d0: f062 b343 f5a3 8a43 9655 9143 86cb ac43
000000e0: 7d8f cf43 3ae9 b043 83f1 2d44 6d2a c943
000000f0: d63a d342 82ba 5d43 c51a a243 a714 9b43
244.23044 330.62347 651.4641 114.46868 265.333 400.31277 492.03946 315.99515
406.28226 341.54376 231.83244 150.66113 330.24203 247.25291 138.9715 460.765
533.2049 276.48117 860.97156 297.5627 303.12515 211.48824 259.05573 298.1037
275.86832 339.79004 190.92072 582.3957 312.9422 824.68756 327.55954 214.94083
1134.6566 154.98526 234.09985 301.84082 357.69315 93.29989 524.9908 153.63779
510.6536 794.377 158.25931 429.4893 693.77606 359.9344 313.27344 858.44354
332.42792 202.09889 398.7227 493.12238 358.77295 277.2809 290.66864 345.59003
415.121 353.82208 695.7736 402.33145 105.614914 221.72855 324.20914 310.16135

21.weight f4 [96]
00000000: a3f8 b13f 553f 763f 3f13 523f 507d b53f
00000010: ceb8 af3f 14a3 bd3f 9b1e 843f 6181 7c3f
00000020: 9fba 7c3f dc3a cd3f 6024 9f3f 1190 ac3f
00000030: 8bc1 883f 5867 f33e 121e 4f3f 41ef dc3f
00000040: 12ed 9e3f 582f 913f 2846 bd3f 4ec8 b83f
00000050: 77d7 5c3f 7310 aa3f 7f87 a43f 4afa 573f
00000060: 7687 973f ad31 803f 44e2 943f 70b3 493f
00000070: 4a5b 9a3f 8de2 8c3f 12be 793f 9770 803f
00000080: 6a5d b83f 5c2a 943f 41d0 863f 3110 aa3f
00000090: 6013 873f e7b6 503f 3bdf 9b3f 5ca8 3e3f
000000a0: c5f2 af3f 75a6 9d3f fbc7 be3f 9e3e 713f
000000b0: 9a22 2b3f 4966 923f 65ce b43f 2de1 583f
000000c0: a504 cc3f 5e0c a33f 878d 873f 2100 b23f
000000d0: 0c10 973f 9b4d d83f a8e4 073f af5c 913f
000000e0: 3544 873f c386 d53f ff1c a43f 61d9 a03f
000000f0: 78af 8b3f 127e 8d3f 5cf6 fd3f 21e1 683f
00000100: c07b 913f aee0 ff3f d830 a43f 926c 943f
00000110: 4491 a53f c8f0 b93f e2bc 9b3f 7c0e ac3f
00000120: 5685 753f df15 993f c262 683f 9f5a a63f
00000130: fa46 ba3f f464 983f 4185 5b3f 5d9e b33f
00000140: ef78 f73f c5f2 913f bbbf ad3f aca2 b93f
00000150: 5ecd c83f ce99 a53f 5cb6 8b3f bd68 b83f
00000160: 5da8 823f 8621 8d3f aa10 b33f 7c37 aa3f
00000170: 7fcd 293f 0ce8 b33f c7fe ad3f 7ef6 833f
1.3904003 0.96190387 0.8206062 1.4178867 1.3728273 1.4815392 1.032184 0.98634917
0.9872226 1.6033587 1.2432976 1.3481466 1.0684065 0.47539783 0.8090526 1.7260514
1.2416098 1.1342573 1.4787035 1.4436128 0.86266273 1.328627 1.285385 0.84366286
1.1838214 1.001516 1.1631551 0.78789425 1.2059109 1.1006638 0.9755565 1.003436
1.4403508 1.1575427 1.0532304 1.3286191 1.0552788 0.81529087 1.21775 0.74475646
1.3745962 1.2316424 1.4904779 0.9423617 0.6684967 1.1437465 1.4125487 0.8471859
1.5938917 1.2738149 1.0590066 1.3906289 1.1801772 1.6898683 0.53083277 1.135641
1.056769 1.6681751 1.2821349 1.2566339 1.0912924 1.1054099 1.9840808 0.9096852
1.136589 1.9990442 1.2827406 1.1595633 1.2934957 1.4526606 1.2167017 1.344192
0.9590658 1.19598 0.9077569 1.2996405 1.455291 1.1905808 0.85750204 1.4032704
1.9333781 1.1402212 1.3574136 1.4502769 1.5687673 1.2937562 1.0915027 1.4406964
1.020763 1.1025856 1.398946 1.3298182 0.6632919 1.405519 1.3593377 1.0309598

21.bias f4 [96]
00000000: 6457 acbf db68 61bf 62a8 3dbf 3167 ecbf
00000010: 9127 0ec0 61eb c7bf 29c5 e3be 4241 2fbf
00000020: 1eb2 46bf 0520 4ebf 0842 febf 566b 35bf
00000030: 11a6 6bbf 9fa5 3e3e a05e 85bf b29f bdbf
00000040: 1d49 a0be 5139 dfbf cf68 08c0 4ae8 c1bf
00000050: 493c 2fbf 7baf 9cbf 72ad 89bf f921 b4bf
00000060: e2ae cebf 3b43 79bf cae6 8ebf abef 22bf
00000070: 2483 c5bf 4cf4 61bf 4297 47bf eeb5 46bf
00000080: 0d98 42c0 c1d3 e3bf eaef 9dbf 6272 aebf
00000090: 3c5f dbbe b604 43be 4ddb b6bf 1182 39be
000000a0: a06f 30c0 6860 acbf 3003 d7bf 0ffc 77bf
000000b0: 614c 933c b06e bcbf 37b8 c4bf 6205 cdbf
000000c0: a85e ccbf 9c48 7cbf 4f08 753c 3a7a 7abf
000000d0: 1854 4ebf 81bf 0dc0 ff6e 71bf 343f e2bf
000000e0: 5639 81bf b06e aebf a098 9dbf 9377 92bf
000000f0: 92a5 a1bf 1be5 8fbf d487 bcbf 8c88 e5bf
00000100: 32ec 81bf 6fd1 fbbf b40e 28c0 417f 4bbf
00000110: af09 22bf ea75 39bf 8f96 77bf e3ba 06bf
00000120: 68a4 5dbf da59 a1bf bfe2 65bf d73b 0cc0
00000130: 08d8 c6bf e460 85bf 5e2c fbbe dc92 b0bf
00000140: b0a4 eabf 755e a7bf b58f 4bbf e566 43bf
00000150: d858 8ebf 42a2 21c0 1ff4 1abf 5497 05c0
00000160: 1c7b a9bf bf90 02bf 0c11 98bf 5704 cfbf
00000170: e4cf 55bf 1151 b6bf 04af 9ebf 4d88 81bf
-1.346417 -0.8805062 -0.74085057 -1.8468992 -2.221165 -1.5618707 -0.4448636 -0.6845895
-0.77615535 -0.8051761 -1.9863901 -0.70866907 -0.9205027 0.18617867 -1.0419502 -1.481436
-0.3130578 -1.7439367 -2.131397 -1.5149014 -0.6845136 -1.2241052 -1.0756056 -1.4072868
-1.614712 -0.9736821 -1.1164181 -0.63646954 -1.5430646 -0.8826339 -0.77965176 -0.7762135
-3.0405304 -1.7798997 -1.2338841 -1.3628657 -0.42846096 -0.19044766 -1.4285675 -0.18116023
-2.756813 -1.3466921 -1.6797848 -0.96868986 0.017980756 -1.4721279 -1.5368718 -1.6017268
-1.5966387 -0.98548293 0.014955594 -0.9784275 -0.80597067 -2.2148135 -0.9430999 -1.7675538
-1.0095623 -1.3627529 -1.2312202 -1.1442741 -1.2628653 -1.1241792 -1.4728951 -1.7932296
-1.0150206 -1.9673289 -2.6258974 -0.7949105 -0.63296026 -0.7244555 -0.9671411 -0.52628917
-0.8657899 -1.2605546 -0.8979911 -2.1911523 -1.5534678 -1.0420194 -0.49057287 -1.3794818
-1.8331509 -1.3075701 -0.79516155 -0.7632888 -1.1120863 -2.5255284 -0.6052875 -2.0873613
-1.3240695 -0.51002115 -1.1880202 -1.61732 -0.8352034 -1.424349 -1.239716 -1.0119721

21.running_mean f4 [96]
00000000: 1c32 dec1 4165 fdc1 3fa8 93c1 fda0 81c1
00000010: ae32 23bf 7e0e 07c2 220a e0c1 2a2e 0cc2
00000020: 899d 84c1 0552 433e 8870 3cc1 98ef a1c1
00000030: e167 2cc1 f3fe 64c1 c73f b5c1 74ef b5c1
00000040: 3711 b2c1 e377 0641 4983 9ec0 c348 6641
00000050: da7d 183f dd16 85bd 3e37 9bc1 bcbf ccc0
00000060: 22db 0ec1 2893 3dc2 94fa bdc1 8f95 b7c1
00000070: ec07 9341 26fb 49c2 e2ef 1ec2 bd9d 8cc1
00000080: e92b 14c0 b893 883f 63cd ddc0 db7f 76c1
00000090: 2dda 0ec2 5d3c 36c1 e8db 9d3f 238a acc1
000000a0: d995 e440 a14d 29c1 730d 26c2 9530 67c0
000000b0: 0973 e3c0 6a3c a93f 0b64 15c0 7faa 51c1
000000c0: ac5a f7c0 640a 72c1 3904 e1c1 ac79 b140
000000d0: 6d5d 14c1 dc8a 75c0 cff1 6d41 d995 48c0
000000e0: 8b7d 4540 113b 6ec1 9367 a340 d97c 44c0
000000f0: 7c4e 30c2 d4ed 42c1 2f21 b4c1 662b 5bc1
00000100: 4174 58bf 8ba9 23c1 6896 aec0 5dbf 20c0
00000110: b899 62c0 badb f2c1 ce13 ebc1 c62e 97c1
00000120: d57d 13c2 5ee8 84c1 f4c2 8bc1 3eda 38c1
00000130: db44 a9c1 d1e0 32c2 7ae3 b9c1 8d90 6bc1
00000140: 6fd4 90c1 7ae1 8041 3c6b 23c1 f884 46c2
00000150: 790c 96c1 659e a840 1eba 83c1 a57c c1c0
00000160: f854 1ec1 eb4a 97c1 77f6 b1c1 ffc8 92bf
00000170: 2d05 43c2 3a4a bfc1 813a 6fc2 07d0 81c0
-27.774467 -31.67444 -18.457151 -16.203608 -0.63749206 -33.764153 -28.004948 -35.045082
-16.576921 0.19074257 -11.777473 -20.24199 -10.775361 -14.312243 -22.656141 -22.74192
-22.258406 8.404269 -4.953526 14.392764 0.59567034 -0.064985014 -19.401974 -6.398405
-8.928499 -47.393707 -23.747353 -22.948027 18.378868 -50.495262 -39.73426 -17.57702
-2.31518 1.067008 -6.9313216 -15.406215 -35.713062 -11.389737 1.2332735 -21.56745
7.143292 -10.581452 -41.513134 -3.6123402 -7.1077924 1.3221562 -2.3342311 -13.104125
-7.7298183 -15.127537 -28.127062 5.5461025 -9.272809 -3.8366003 14.871535 -3.134146
3.0857875 -14.8894205 5.1063933 -3.07012 -44.076645 -12.1830635 -22.516203 -13.698095
-0.8455239 -10.228892 -5.45586 -2.51168 -3.5406322 -30.357288 -29.38467 -18.897839
-36.872883 -16.61346 -17.470192 -11.553282 -21.15862 -44.719547 -23.236073 -14.722791
-18.103727 16.110096 -10.21368 -49.629852 -18.75609 5.2693353 -16.465878 -6.0464654
-9.895744 -18.911581 -22.245344 -1.1467589 -48.755054 -23.911243 -59.807133 -4.056644

21.running_var f4 [96]
00000000: 8039 4644 1769 a744 9ebd d143 61b1 c943
00000010: 7c9f ac43 a5ec 3944 af94 0844 f735 0445
00000020: a3b5 ef43 6d6c 0944 f25c a143 382e 8f44
00000030: d385 1544 2c52 3244 e2b1 ed43 3666 2744
00000040: ab42 3644 456d 6243 74ea b343 dcaa ea43
00000050: cace ec43 709d f943 dbe9 0344 7da1 e143
00000060: 98f8 5843 7602 8744 1072 3e44 5191 2b44
00000070: a3a1 2644 4055 1245 b63a 1744 a412 e543
00000080: ae25 8c43 a444 af43 b5a1 7f43 cbbb d043
00000090: bba9 6244 7bf2 5344 1e57 c943 c811 7a44
000000a0: 1572 8943 e2bd bf43 c0c5 2844 03e6 5044
000000b0: 69ff 0444 da33 ba43 58d1 a943 c8e3 af43
000000c0: 961c ab43 dedf 4044 4f6d ac44 626b e443
000000d0: fe6e b243 c581 3444 d8a4 cf43 1be3 1a44
000000e0: 09c2 ca43 5891 8344 e980 0744 78b7 de43
000000f0: 5dbc 5d44 ac4c ea43 d110 1f44 2e43 b043
00000100: 1aec 0644 e9e6 4044 b6dd 9e43 d0f3 0244
00000110: f312 1c44 0786 6944 9d4e 0844 6f6e 7844
00000120: d5df 5144 7f2f f743 3466 1344 324c b543
00000130: 9a95 cf43 694c a044 a610 2244 9cb0 7a44
00000140: d55d 2444 8190 b743 3b5b 0444 fdb8 bd44
00000150: 6dca df43 fdfc 5243 81bd f743 0213 c843
00000160: fddb 0c44 f4ee 0844 f8af 2944 0dea f043
00000170: be82 4f44 4dad 3144 c122 0145 3ea7 4f44
792.89844 1339.284 419.48138 403.38577 345.24597 743.6976 546.3232 2115.3728
479.41904 549.69415 322.72614 1145.4443 598.091 713.28394 475.3897 669.59705
729.0417 226.42683 359.83167 469.33484 473.61554 499.22998 527.654 451.26163
216.97107 1080.0769 761.7822 686.27057 666.5256 2341.3281 604.91736 458.14563
280.29437 350.53625 255.63167 417.46713 906.65204 847.78876 402.6806 1000.27783
274.89127 383.48346 675.08984 835.59393 531.9908 372.4051 339.6355 351.77954
342.22333 771.4979 1379.4159 456.83893 356.86713 722.02765 415.28784 619.5485
405.5159 1052.542 542.0142 445.43335 886.9432 468.599 636.26276 352.52484
539.6891 771.608 317.73212 523.8096 624.2961 934.0942 545.22833 993.7255
839.4974 494.37106 589.5969 362.59528 415.16876 1282.3878 648.26013 1002.7595
657.4661 367.12894 529.4255 1517.7809 447.58145 210.98824 495.4805 400.1485
563.4373 547.73364 678.7495 481.82852 830.04285 710.7078 2066.172 830.61316

27.bias f4 [24]
00000000: 5ac5 94be b46a 94be 8404 9cbe fc47 2c3d
00000010: 2324 2a3d aae8 ff3c 8449 663e 712d 333e
00000020: d231 083e b798 eb3d c5b3 6bba fae3 193c
00000030: 47d0 fa3d b3fc 3a3e 4517 403e 03b8 013e
00000040: 64a2 553e 2df1 88be fa07 92be a816 413d
00000050: c493 b73d 9db4 5c3e e5b1 8a3e 1ce7 b5ba
-0.29056817 -0.28987658 -0.30472195 0.042060837 0.04153837 0.031238873 0.22488981 0.17497803
0.13300255 0.115037374 -0.00089913263 0.009392733 0.12246757 0.1826046 0.18758877 0.12667851
0.20862728 -0.26746503 -0.2852171 0.047140747 0.08963731 0.21553273 0.27088848 -0.001387808

165 f4 [16, 2, 8]
00000000: 0000 0080 6f18 10bf 6447 83bf 1304 d1bf
00000010: 6cff 96bf b46e 5cbf cdf2 8a3e 4fc7 d03f
00000020: 4a9e d93f 5471 483f 0000 0080 ab8a 29bf
00000030: 2511 98bf cf07 c2bf 8cae c8bf 393b 94bf
00000040: e30c 313f f238 9c3f 7a5f 4e3f 8483 543f
00000050: aa81 673f e75b b63f d952 b93f 45f1 9d3f
00000060: 8fff 913e 95e4 243f 68c4 0a3f 0000 0000
00000070: 5224 923e 0000 0000 665b 533f 4fc4 093f
00000080: 4ade bbbf a82e 07bf 7e1c 683f 26b4 5c3f
00000090: a547 b43f 7add 813f 3f3c a33f fd8c 453f
000000a0: 0000 0080 e8cc acbf 438b 91bf eb54 83bf
000000b0: 4ae6 f6be 0000 0080 a09b b63f e686 d73f
000000c0: 0993 643f 8043 383f c736 693f dd33 983f
000000d0: ef3e a63f 099e 913f a2ba 943f 5063 493f
000000e0: 88db b7be fbe1 21bf a62c 20bf 3d98 efbe
000000f0: 5d5a 5abf a6bd 1bbf 3f11 25bf ca31 e6be
00000100: 701b 123f 0000 0000 7d3f 093f 0000 0000
00000110: 0000 0000 0000 0080 bbce b93e fa81 f73e
00000120: 93aa ae3f 7ce0 9d3f 1613 913f 2833 993f
00000130: b8c0 8a3f ee95 773f 169b 933f 005d 733f
00000140: 69fd 8a3f a4ed cc3f 3e48 533f 2498 6abf
00000150: b6bc 69bf 6a10 35bf 7645 c6bf b8df 65bf
00000160: 0d13 e5be 0000 0080 6b51 a53f 4f27 ae3f
00000170: d221 cc3f e5a3 9d3f ac03 d33e 6354 adbf
00000180: 8d90 48bf 1b30 d23e 3dbc 2ebf 2349 b1bf
00000190: 6dd0 8d3f f3cd d63f 1a47 12bf 0000 0080
000001a0: 0000 0080 a0f5 09bf 779f b93e 4ad8 9b3e
000001b0: 8793 a4bf 0000 0080 c234 c3bf 4d5a db3f
000001c0: 0000 0080 0000 0000 0000 0000 0000 0080
000001d0: bb7d eb3e eea5 bc3e 186b 9b3e 0000 0000
000001e0: 2961 30bf 9325 33bf c46e 2ebf 3845 9bbf
000001f0: 5a28 9fbf 7b60 c0bf a620 d6bf 1854 b4bf
00000200: 30df 77bf f91a a2bf 8b17 02bf 0000 0080
00000210: 06e9 1e3f e37e 853f 3bdc d93f 04bf c13f
00000220: 263c 42bf 0000 0000 f9c0 a03f d62f ae3f
00000230: cde0 d23f af36 a53f 4cc2 d33e 1f1c 83bf
00000240: 14f2 babe 303b 90bf ee8d 8cbf 7d92 bcbf
00000250: 20eb aebf ad28 c3bf fb4e c3bf c780 8bbf
00000260: 0000 0000 0000 0000 0000 0000 7fba bd3e
00000270: 0000 0000 0000 0080 0000 0000 0000 0080
00000280: b66e 34bf 4266 15bf 4815 8bbf 2a94 40bf
00000290: daa7 d8be 0da8 fbbe 6f2f 52bf 8335 09bf
000002a0: ec29 d13e 0555 813f 6b92 8f3f 58af 8e3f
000002b0: e10b 583f 2568 763f d004 7a3f 385b 833f
000002c0: ab7b 5f3f 0000 0080 fd25 d83f 9d0e d8bf
000002d0: bf76 abbe 2614 b4bf 0000 0000 e9f2 be3f
000002e0: 1a55 d23f 4ae9 303f 53dd 24bf 0000 0080
000002f0: e177 d5bf 24ca d9bf 390e 6c3f e145 d83f
00000300: b0ab cabe 64fa 27bf cda8 7cbf 571f 2dbf
00000310: 1619 41bf ff67 77bf 4e0b 81bf 7d13 5ebf
00000320: acd6 67bf 9a8c 68bf 4d26 1ebf 8b54 55bf
00000330: eb70 4ebf 2f3a 6dbf 813d 8ebf adf3 30bf
00000340: 2295 9f3f 0000 0000 2f3b 94bf ba41 c4bf
00000350: 1150 a6bf 7c8d aabf bba2 3dbf 7996 323f
00000360: e43f c3bf 3403 b5bf 0000 0000 3b37 4cbf
00000370: 0000 0000 0000 0000 6a55 c53f 3260 da3f
00000380: c6f2 8fbf 1810 76bf 530b 6bbf 59fc 2bbf
00000390: 6cbc cabe ebb1 013f 7b05 d63f 064d db3f
000003a0: 6a35 5b3f 27f6 9f3f 835a 583f 0000 0000
000003b0: 56f2 8f3e 05b7 61bf e70e a0bf b3be 75bf
000003c0: 1acd 883f a922 7b3f 5e4b 883f 046f 7e3f
000003d0: 8cf6 6b3f 0000 0080 73af 90bf ff11 b1bf
000003e0: 7fd7 ca3f 53ef b33e 6b2b 31bf e968 bbbf
000003f0: 39e6 82bf b03d c7bf 923c 88bf 0000 0000
-0.0 -0.5628728 -1.0256162 -1.6329368 -1.1796699 -0.8610642 0.27138367 1.6310824
1.7001431 0.78297925 -0.0 -0.66227216 -1.1880232 -1.5158633 -1.5678267 -1.1580573
0.6916029 1.2204878 0.80614436 0.83013177 0.90432227 1.4246796 1.4478408 1.2339255
0.28515288 0.6441129 0.5420594 0.0 0.28543335 0.0 0.8256134 0.5381517
-1.4677212 -0.52805567 0.90668476 0.86212385 1.4084364 1.0145714 1.2752761 0.77168256
-0.0 -1.3500032 -1.1370624 -1.026029 -0.48222572 -0.0 1.4266243 1.6838043
0.8928686 0.71977997 0.9109921 1.1890827 1.2987956 1.1376354 1.1619456 0.78667164
-0.35909677 -0.63235444 -0.6256813 -0.46795836 -0.85294133 -0.60836256 -0.6447944 -0.4495986
0.57073116 0.0 0.536125 0.0 0.0 -0.0 0.36290535 0.48341352
1.3645805 1.2334132 1.133395 1.1968737 1.0840063 0.9671315 1.1531703 0.9506378
1.0858585 1.6010022 0.8253211 -0.916384 -0.91303575 -0.7072817 -1.5489948 -0.8979449
-0.44741097 -0.0 1.2915472 1.3605746 1.5947821 1.2315642 0.4121374 -1.3541378
-0.78345567 0.41052327 -0.6825598 -1.3850445 1.1079232 1.6781601 -0.5713974 -0.0
-0.0 -0.5389042 0.36254475 0.30438453 -1.2857522 -0.0 -1.5250475 1.7136933
-0.0 0.0 0.0 -0.0 0.45994362 0.36845344 0.30355144 0.0
-0.68898255 -0.6997921 -0.68137765 -1.2130499 -1.2434189 -1.5029444 -1.6728714 -1.4088163
-0.9682493 -1.2664481 -0.50817174 -0.0 0.62074316 1.0429348 1.7020334 1.5136418
-0.7587303 0.0 1.255889 1.3608348 1.6474854 1.2907313 0.41359174 -1.0242957
-0.36512816 -1.1268063 -1.0980814 -1.4732205 -1.3665504 -1.5246788 -1.5258478 -1.0898675
0.0 0.0 0.0 0.37056348 0.0 -0.0 0.0 -0.0
-0.7048143 -0.5835916 -1.086587 -0.7522608 -0.4231556 -0.4915165 -0.8210363 -0.5359728
0.40852296 1.0104071 1.1216558 1.1147261 0.84393126 0.9625266 0.97663593 1.0262213
0.8729808 -0.0 1.6886593 -1.687946 -0.33489034 -1.4068649 0.0 1.491788
1.6432221 0.6910597 -0.64400214 -0.0 -1.6677209 -1.7014813 0.922092 1.6896325
-0.39584112 -0.6561644 -0.9869507 -0.67625946 -0.75428903 -0.9664306 -1.0081575 -0.86748487
-0.9056194 -0.9083954 -0.6177719 -0.8333213 -0.8064105 -0.92666906 -1.111252 -0.6912182
1.2467387 0.0 -1.1580561 -1.5332558 -1.2993184 -1.3324428 -0.7407643 0.69760853
-1.5253873 -1.4141603 0.0 -0.79771775 0.0 0.0 1.5416691 1.7060606
-1.1245964 -0.9611831 -0.91814154 -0.67181927 -0.3959688 0.50662106 1.6720423 1.7132881
0.8562838 1.2496995 0.8451311 0.0 0.28114575 -0.8816989 -1.2504548 -0.9599411
1.0687592 0.9809976 1.0648 0.99388146 0.92173076 -0.0 -1.1303543 -1.3833617
1.5847014 0.35143527 -0.69206876 -1.4641391 -1.0226508 -1.55657 -1.0643485 0.0

167 f4 [24, 16, 8]
00000000: 245e a33e 5180 0c40 e309 563f 81b6 c0be
00000010: 8b28 80bf b523 4dbf de4a c3bf 8c08 cc3f
00000020: c7a6 b33f cd36 d6be 1672 87bf f959 4b3f
00000030: a6b5 ee3f a24a 713f 0000 0080 df77 b3bf
00000040: 61b8 54c0 99fd bfbf bfef c93e 63f1 973f
00000050: 0325 393f ab0a 1bbf 49b5 5dc0 9d18 debf
00000060: ecaa 1fbf 62e5 913f 90dd 4b3f 0000 0080
00000070: 0000 0000 e13c 153f 0000 0080 a18b 523f
00000080: ea42 3840 0000 0080 958f d1bf 0000 0000
00000090: 59d4 913f a16c 623f 329c 393f ccfe a5bf
000000a0: 63e8 1b40 50a8 89bf 9385 21c0 be38 dcbf
000000b0: 2f0e b53e dd6b a03f b8f8 733f 06dd 5dbf
000000c0: 3c27 2bc0 1f8b 12c0 d1eb 2cbf 33b9 09bf
000000d0: 4152 99bf 1bd4 2cc0 edbc ebbf b23b d5bf
000000e0: 027a 88bf e687 7d3f 3523 a63f 0000 0000
000000f0: c22b 43bf 0000 0080 35ff c13e b5cc ae3f
00000100: 3b4e ecbe 237e 34c0 9efb e6bf 0000 0000
00000110: 4c4b c13f f1bc e83f 0000 0000 39a7 0cc0
00000120: 343b 7dbf 1929 0b40 0488 893f 21c6 11bf
00000130: fc56 debe 0000 0000 301d c93e 232e 0440
00000140: 0000 0080 e3dd 26bf 9e53 fbbe 0000 0000
00000150: 6093 9b3f b654 903f 0cce c4be 171f bfbf
00000160: eaa8 983f c90b 8c3f 0000 0080 9a46 48c0
00000170: 041f 5dc0 e708 3fc0 71f7 54c0 0000 0080
00000180: 24bb b7bf 69e6 543f 14d4 b33f cddc 163f
00000190: fb5e a4bf 4c55 94bf 9cc7 42bf 2937 0d40
000001a0: 7c99 0ec0 3c16 06bf 0000 0000 f212 6f3f
000001b0: b372 163f 8a1c 16c0 5564 5cc0 fb0d b83e
000001c0: 614e fc3f ccd5 55bf 9492 5dbf a8a5 9f3f
000001d0: 0000 0000 8e4c aebf fec8 3c3f 63ad 173f
000001e0: d1d2 ed3f ad85 583f 87cd 143f 322e 9dbf
000001f0: 460e 4dc0 a341 07bf 05ac 873f e000 533f
00000200: 257b 90be cda6 c9be 82f6 abbe 0000 0080
00000210: 0000 0080 0000 0080 eafc 2b3f 746b 173f
00000220: 98dd 833f 717f 883f 3472 573f d029 7bbf
00000230: f433 5ac0 439f 5dc0 831e 9cbf 2c4e ca3e
00000240: b9f2 e0be f584 8cbe 0000 0080 0000 0080
00000250: 1f68 db3e 753e 6b3f a225 183f 15a0 ff3e
00000260: 8ab0 013f 10e2 653f 9e74 763f 0000 0080
00000270: ac65 1fc0 c498 5dc0 ffa5 dbbf fe31 ec3e
00000280: 77a4 033f 8032 563f edb2 943f 577f bc3e
00000290: 3345 0fc0 0fab 5dc0 e876 1bc0 b3d1 7c3f
000002a0: 0b07 3ebf b652 b6be c32d e6be 4138 b2be
000002b0: 0000 0080 cb6b 903e 0000 0000 c065 c73e
000002c0: 2177 0fbf f974 15bf ed77 26bf 8340 56bf
000002d0: e8e5 82bf aded 79bf 87c9 56bf 91a1 4dbf
000002e0: ebaf 613f c144 883f 55c4 0a3f da56 37bf
000002f0: 9edf 53c0 2cb6 53c0 be8c 15bf 370d 1d3f
00000300: 44e2 f3be 0000 0080 0000 0080 0000 0080
00000310: 2229 d3be 0000 0000 7767 073f 22e9 383f
00000320: 16de 1e3f 241e 6e3f 587a 883f 4501 b0be
00000330: 4369 45c0 3e4c 5cc0 c075 96bf c36d ad3f
00000340: e70d 843f 6614 343f cfa1 0e3f d82a 0abf
00000350: 1157 1cc0 9818 5ec0 a161 00c0 adbd 563f
00000360: e954 1dbf a89a 02bf 7609 65bf 4db2 3cbf
00000370: b93c 45bf 56de c4be 063b c6be 0000 0080
00000380: 68d4 113f b19e 853f 202a c13f 0000 0000
00000390: ece2 45c0 9ff7 5cc0 1831 f5bf 2356 443f
000003a0: b18e 8fbe a379 39bf 1253 33bf d369 90be
000003b0: 0000 0080 e894 203f 63bc 023f 89b9 303f
000003c0: 0000 0080 cb09 02bf e7cc 4bbf 0000 0080
000003d0: ac5a 953f ce1e e23f a47d 423f 7c13 19bf
000003e0: 7fd5 c9be fb25 21bf b350 d9be 965b 9ebe
000003f0: 0000 0080 0000 0000 2268 b33e 0000 0080
0.3190776 2.1953318 0.83608836 -0.3763924 -1.0012373 -0.8013261 -1.5257223 1.5940108
1.4035271 -0.41838685 -1.0581691 0.7943416 1.8649185 0.94254506 -0.0 -1.4020957
-3.3237536 -1.4999267 0.39440724 1.187054 0.723221 -0.60563153 -3.4641898 -1.7351261
-0.6237018 1.1398127 0.7963495 -0.0 0.0 0.5829602 -0.0 0.82244307
2.879084 -0.0 -1.6371943 0.0 1.1392928 0.88447005 0.7250396 -1.2968383
2.4360588 -1.075449 -2.5237777 -1.7204816 0.35362384 1.2532917 0.9530139 -0.8666538
-2.6742697 -2.2897413 -0.6754733 -0.53798217 -1.1978227 -2.700446 -1.841703 -1.6658843
-1.0662234 0.9903549 1.2979494 0.0 -0.76238644 -0.0 0.3789002 1.3656222
-0.46153435 -2.8201988 -1.8045537 0.0 1.5101104 1.818266 0.0 -2.1977065
-0.9891846 2.1743834 1.0744634 -0.56942946 -0.4342574 0.0 0.3928008 2.065316
-0.0 -0.6518232 -0.49087232 0.0 1.215435 1.1275852 -0.3843845 -1.4931363
1.1926548 1.0941097 -0.0 -3.1293092 -3.455018 -2.9849184 -3.3276026 -0.0
-1.4353986 0.8316408 1.4049096 0.58930665 -1.2841486 -1.158853 -0.7608583 2.2064917
-2.228118 -0.52377677 0.0 0.93388283 0.5876877 -2.345492 -3.4436238 0.35948166
1.9711419 -0.83529353 -0.86551785 1.2472429 0.0 -1.3617113 0.7374419 0.5924894
1.8579961 0.84578973 0.5812611 -1.2279723 -3.2039962 -0.5283453 1.0599371 0.8242321
-0.28218952 -0.3938507 -0.33586508 -0.0 -0.0 -0.0 0.6718279 0.59148335
1.0302 1.0663892 0.84158635 -0.98110676 -3.409421 -3.4628456 -1.2196811 0.39512765
-0.43935183 -0.27445188 -0.0 -0.0 0.42852876 0.91892177 0.59432423 0.4992682
0.5066 0.8979807 0.96271694 -0.0 -2.4905806 -3.462449 -1.7160033 0.4613189
0.5142283 0.83670807 1.1617104 0.36815903 -2.2385986 -3.4635656 -2.4291325 0.98757476
-0.74229497 -0.35609978 -0.44956788 -0.34808543 -0.0 0.2820724 0.0 0.38944817
-0.5604115 -0.5838161 -0.6502674 -0.8369219 -1.0226412 -0.9762829 -0.83901256 -0.80324656
0.88159055 1.0645982 0.5420583 -0.716169 -3.3105235 -3.307994 -0.5841788 0.6134829
-0.47633564 -0.0 -0.0 -0.0 -0.4124232 0.0 0.5289225 0.7223073
0.62057626 0.9301474 1.0662336 -0.3437597 -3.0845497 -3.4421535 -1.1754684 1.3549122
1.0316743 0.70343626 0.5571565 -0.53971624 -2.442814 -3.470251 -2.0059588 0.8388317
-0.6145769 -0.51017237 -0.8946756 -0.73709565 -0.7704578 -0.3845088 -0.38716906 -0.0
0.5696473 1.0439054 1.509098 0.0 -3.0919752 -3.4526136 -1.9155607 0.76693934
-0.28038552 -0.7245123 -0.7004863 -0.28205737 -0.0 0.6272721 0.51068705 0.69033104
-0.0 -0.5079619 -0.7960953 -0.0 1.1668296 1.7665651 0.7597296 -0.59795356
-0.39420697 -0.6294858 -0.4244438 -0.3092925 -0.0 0.0 0.35040385 -0.0

169 f4 [32, 24, 8]
00000000: 4010 d33f 431e 2dbf 263c 2740 cb2d cabf
00000010: 1358 0240 ed2f bbbf 7505 833f dad8 bbbf
00000020: fa65 9cbf d67b bfbf 0000 0080 84c8 fe3e
00000030: e2df e4be 5017 223f b7af f9be 2b10 023f
00000040: eb2c a6bf 559a 0240 6fe0 d6bf 71cb fd3e
00000050: 6ec1 01bf 0000 0000 0000 0080 95d0 2dbf
00000060: 7db7 92be ca73 59bf 0000 0000 6124 8fbf
00000070: 2838 99be fe60 4cbf 3d9f af3e 1261 34bf
00000080: 0000 0080 1f27 c0c0 8895 2ebf c23e 913f
00000090: da5b 99be 0fea 8d3e 4294 923e 0000 0000
000000a0: 0000 0000 93c5 e9bf 69fc 08c0 359c 003f
000000b0: 0000 0080 7ca6 40bf 0000 0000 eadc 63bf
000000c0: e81c 2fbf 0000 0080 ae05 033f a6c6 60bf
000000d0: 0000 0080 0000 0080 0000 0080 0000 0000
000000e0: a57f 133f 0000 0080 0000 0080 e5a9 9a3e
000000f0: c99b c3be 0000 0000 0000 0000 0000 0080
00000100: c1b4 f03e 0000 0080 09dd 00bf f656 e13e
00000110: 419c 25bf 0000 0000 0000 0080 0000 0000
00000120: 77d5 da3e 0000 0080 d2d1 a13f 7504 86bf
00000130: dc99 0a3f 9f80 48bf 0000 0000 1ba7 b1be
00000140: 4c64 073f be8e 98bf 865b 433f 114f 0bbf
00000150: 0000 0080 0000 0080 0000 0000 0000 0080
00000160: bffb aabf f4dd 52bf 0000 0080 0000 0080
00000170: 0000 0080 6bea 2abf bffd d2be bb74 ad3e
00000180: a48f 2ebf 0a23 c43e 0000 0080 f566 02bf
00000190: 0000 0080 32ad 9abe 7073 f4be 0000 0000
000001a0: f485 eb3f 909b 12c0 5034 4140 923b c7bf
000001b0: 20cd 3040 2112 ecbf 4368 053f 5dd7 46bf
000001c0: b692 32bf eeb2 c3be 313a 15bf 4221 07bf
000001d0: 0000 0080 0000 0000 2404 bebe 0000 0000
000001e0: 0000 0080 0000 0080 c930 673f 95cb 30bf
000001f0: 4482 8a3f 6c40 9dbf 1a06 8e3f 6832 b2bf
00000200: 9017 c03f 6688 c8bf 371c 2040 dd02 d5bf
00000210: b884 9e3f b084 90bf 052f 9b3e f945 b1be
00000220: 816b 92bf eeaf a03f 5e09 a0bf 0000 0080
00000230: d56b debe 0000 0000 f344 0f3f 558a 90be
00000240: 0798 e83e 767d e5be 8613 5a3f 0000 0080
00000250: 0000 0000 0000 0080 0000 0000 0000 0000
00000260: 88a2 81c0 3f8e e6bf 0000 0000 3477 223f
00000270: 0ad7 94be 0000 0000 0000 0000 7a4f f9be
00000280: cffe 7b3f 9c9c 90bf 84df 543f 6669 9fbe
00000290: 0000 0000 b2ba 96be 0000 0000 0000 0000
000002a0: 984e b33f 41d6 66bf 6523 1540 4f97 f7bf
000002b0: 96ed 4d3f 6efc edbe 2297 92be 0000 0080
000002c0: 767f 903f e948 e7bf 433d a03f a203 d9bf
000002d0: 98a8 5d3f 12cf e9be 0000 0000 0000 0000
000002e0: 37ae 993e e280 bfc0 8905 29bf 0508 4a3f
000002f0: 297b 38bf 7451 423f 0c0f 56bf 3f67 183f
00000300: 6654 0a40 e366 253f 3f86 0240 cbb9 02bf
00000310: ca06 3540 5e94 13c0 cb1a 883f c958 bcbf
00000320: 53eb 80c0 d581 7bc0 6422 a7be ffbd a83e
00000330: 9c38 44bf 4658 283f a485 1bbf 6d2d 2f3f
00000340: 0000 0000 dd5f 6740 1486 e8bf 0000 0000
00000350: 0000 0000 0000 0080 0000 0000 8ce0 99bf
00000360: 01a0 88bf ea73 86bf ec93 463f 5d2d 593f
00000370: 6f0d 3a3f 885b 9ebf 4c77 c63f 2eaa 8abf
00000380: a23b a1bf 2c62 7dc0 1403 11c0 70b8 0140
00000390: 7cf7 63bf a339 a33e 0000 0000 0000 0080
000003a0: 9abd 413f 9f5e a93f 872b 86c0 6fce 173f
000003b0: 9d39 14bf 0000 0080 6e0d ee3e 200c 92bf
000003c0: f032 9fbe eb4b 0240 b518 3a3f 6808 a0bf
000003d0: fcea 183f bcd9 433f 2351 e4bf 0000 0000
000003e0: dfa7 8a3f 839d 2ebf 2dbc 3abf ebac 8d3f
000003f0: f23d bbbe 0000 0000 0000 0000 1655 4fbf
1.6489334 -0.676243 2.6130462 -1.5795225 2.0366256 -1.4624001 1.023604 -1.4675553
-1.2218621 -1.4959667 -0.0 0.49762356 -0.4470206 0.6331682 -0.48766872 0.5080592
-1.2982458 2.0406697 -1.6787242 0.49569276 -0.50685775 0.0 -0.0 -0.67896396
-0.28655615 -0.84942305 0.0 -1.1182977 -0.29925656 -0.798355 0.34301177 -0.7046062
-0.0 -6.0047755 -0.68196917 1.1347277 -0.2995289 0.27717635 0.28628737 0.0
0.0 -1.826342 -2.140406 0.50238353 -0.0 -0.75254035 0.0 -0.89008963
-0.6840348 -0.0 0.5118054 -0.87803113 -0.0 -0.0 -0.0 0.0
0.57616645 -0.0 -0.0 0.30207744 -0.38204792 0.0 0.0 -0.0
0.47012904 -0.0 -0.5033727 0.44011658 -0.6469155 0.0 -0.0 0.0
0.42740986 -0.0 1.2642157 -1.047011 0.5414102 -0.7832126 0.0 -0.34697804
0.52887416 -1.1918561 0.7631153 -0.5441752 -0.0 -0.0 0.0 -0.0
-1.3358077 -0.82369924 -0.0 -0.0 -0.0 -0.66763943 -0.41209218 0.3387812
-0.6818793 0.38307983 -0.0 -0.5093835 -0.0 -0.30210263 -0.47744322 0.0
1.8400254 -2.2907448 3.018818 -1.5565054 2.7625198 -1.8443033 0.52112216 -0.7767237
-0.69755113 -0.3822245 -0.5829192 -0.5278512 -0.0 0.0 -0.37112534 0.0
-0.0 -0.0 0.90308815 -0.6906064 1.0821004 -1.2285285 1.1095612 -1.3921633
1.5007191 -1.5666625 2.501722 -1.6641499 1.2384253 -1.1290493 0.3030931 -0.34623697
-1.1439058 1.255369 -1.2502859 -0.0 -0.43441644 0.0 0.55964583 -0.2823054
0.45428488 -0.44822282 0.8518604 -0.0 0.0 -0.0 0.0 0.0
-4.0510902 -1.801216 0.0 0.6346314 -0.29070312 0.0 0.0 -0.48693448
0.9843568 -1.1297793 0.8315356 -0.311351 0.0 -0.29439312 0.0 0.0
1.400836 -0.90170676 2.3302853 -1.9343051 0.8044065 -0.4648165 -0.2863093 -0.0
1.1288898 -1.8069125 1.2518696 -1.6954234 0.8658538 -0.45665795 0.0 0.0
0.30015728 -5.984483 -0.6602407 0.78918487 -0.7206293 0.7590554 -0.8361671 0.5953254
2.1614013 0.6461012 2.0394437 -0.5106475 2.8285394 -2.3059306 1.0633177 -1.4714595
-4.028726 -3.9297993 -0.32643425 0.32957456 -0.7664888 0.65759695 -0.60750794 0.6842869
0.0 3.615226 -1.8165917 0.0 0.0 -0.0 0.0 -1.2021651
-1.0673829 -1.0504124 0.7756946 0.84834844 0.7267675 -1.2371683 1.5505157 -1.0833185
-1.2596323 -3.959117 -2.2658129 2.0268822 -0.89049506 0.3187991 0.0 -0.0
0.75679934 1.3232001 -4.1928134 0.5929937 -0.5790041 -0.0 0.4649462 -1.140995
-0.3109355 2.0358837 0.7269395 -1.2502565 0.5973356 0.7650411 -1.7837261 0.0
1.083248 -0.68209094 -0.72943383 1.1068395 -0.36570698 0.0 0.0 -0.80989206

171 f4 [48]
00000000: d70f 0e40 ebba ba3f 5750 da3f 63ea 1440
00000010: 602d 3d3f a942 883f 8152 3240 bedb 473f
00000020: e420 863f 431e cd3f 7be0 593f ddf3 a73f
00000030: 096e 9d3f b0fa a63f 2921 883f 60c1 d13f
00000040: e400 5b3f 86e3 8e3f 0e78 433f b15a 9a3f
00000050: 2f3e a13f c2e2 a03f 1714 8e3f 7308 ec3f
00000060: 29fb de3f 88f6 de3f 3b3c e73f c71b a13f
00000070: 7c55 c43f 3de8 b93f 5f83 a63f 3887 8e3f
00000080: e7d2 a53f c938 ab3f 0cca fb3f 291a c33f
00000090: 2e0e e53f 8453 c53f f7be 483f 938f 9a3f
000000a0: eadd d33f e38d db3f 168f c43f ed45 8b3f
000000b0: bbd3 d43f 8425 9d3f f101 ad3f aba2 933f
2.2197168 1.4588293 1.7055768 2.3268058 0.7389736 1.0645343 2.7862856 0.78069675
1.0478787 1.602486 0.85108155 1.3121296 1.2299205 1.3045254 1.063512 1.6387138
0.85548234 1.1163185 0.76355064 1.2058927 1.2597102 1.2569201 1.1099881 1.8440078
1.7420398 1.7418985 1.8065256 1.2586602 1.5338588 1.4523998 1.3008841 1.1135015
1.2954987 1.3376704 1.9671035 1.5242358 1.7894952 1.5416112 0.7841639 1.2075065
1.6552098 1.7152675 1.5356166 1.0880715 1.6627115 1.2277074 1.3516217 1.1534017
